----------------------------------------------------------------
        Layer (type)               Output Shape         Param #
================================================================
            Conv2d-1            [-1, 3, 32, 32]               6
            Conv2d-2           [-1, 64, 16, 16]           9,408
       BatchNorm2d-3           [-1, 64, 16, 16]             128
              ReLU-4           [-1, 64, 16, 16]               0
         MaxPool2d-5             [-1, 64, 8, 8]               0
            Conv2d-6             [-1, 64, 8, 8]           4,096
       BatchNorm2d-7             [-1, 64, 8, 8]             128
              ReLU-8             [-1, 64, 8, 8]               0
            Conv2d-9             [-1, 64, 8, 8]          36,864
      BatchNorm2d-10             [-1, 64, 8, 8]             128
             ReLU-11             [-1, 64, 8, 8]               0
           Conv2d-12            [-1, 256, 8, 8]          16,384
      BatchNorm2d-13            [-1, 256, 8, 8]             512
           Conv2d-14            [-1, 256, 8, 8]          16,384
      BatchNorm2d-15            [-1, 256, 8, 8]             512
             ReLU-16            [-1, 256, 8, 8]               0
       Bottleneck-17            [-1, 256, 8, 8]               0
           Conv2d-18             [-1, 64, 8, 8]          16,384
      BatchNorm2d-19             [-1, 64, 8, 8]             128
             ReLU-20             [-1, 64, 8, 8]               0
           Conv2d-21             [-1, 64, 8, 8]          36,864
      BatchNorm2d-22             [-1, 64, 8, 8]             128
             ReLU-23             [-1, 64, 8, 8]               0
           Conv2d-24            [-1, 256, 8, 8]          16,384
      BatchNorm2d-25            [-1, 256, 8, 8]             512
             ReLU-26            [-1, 256, 8, 8]               0
       Bottleneck-27            [-1, 256, 8, 8]               0
           Conv2d-28             [-1, 64, 8, 8]          16,384
      BatchNorm2d-29             [-1, 64, 8, 8]             128
             ReLU-30             [-1, 64, 8, 8]               0
           Conv2d-31             [-1, 64, 8, 8]          36,864
      BatchNorm2d-32             [-1, 64, 8, 8]             128
             ReLU-33             [-1, 64, 8, 8]               0
           Conv2d-34            [-1, 256, 8, 8]          16,384
      BatchNorm2d-35            [-1, 256, 8, 8]             512
             ReLU-36            [-1, 256, 8, 8]               0
       Bottleneck-37            [-1, 256, 8, 8]               0
           Conv2d-38            [-1, 128, 8, 8]          32,768
      BatchNorm2d-39            [-1, 128, 8, 8]             256
             ReLU-40            [-1, 128, 8, 8]               0
           Conv2d-41            [-1, 128, 4, 4]         147,456
      BatchNorm2d-42            [-1, 128, 4, 4]             256
             ReLU-43            [-1, 128, 4, 4]               0
           Conv2d-44            [-1, 512, 4, 4]          65,536
      BatchNorm2d-45            [-1, 512, 4, 4]           1,024
           Conv2d-46            [-1, 512, 4, 4]         131,072
      BatchNorm2d-47            [-1, 512, 4, 4]           1,024
             ReLU-48            [-1, 512, 4, 4]               0
       Bottleneck-49            [-1, 512, 4, 4]               0
           Conv2d-50            [-1, 128, 4, 4]          65,536
      BatchNorm2d-51            [-1, 128, 4, 4]             256
             ReLU-52            [-1, 128, 4, 4]               0
           Conv2d-53            [-1, 128, 4, 4]         147,456
      BatchNorm2d-54            [-1, 128, 4, 4]             256
             ReLU-55            [-1, 128, 4, 4]               0
           Conv2d-56            [-1, 512, 4, 4]          65,536
      BatchNorm2d-57            [-1, 512, 4, 4]           1,024
             ReLU-58            [-1, 512, 4, 4]               0
       Bottleneck-59            [-1, 512, 4, 4]               0
           Conv2d-60            [-1, 128, 4, 4]          65,536
      BatchNorm2d-61            [-1, 128, 4, 4]             256
             ReLU-62            [-1, 128, 4, 4]               0
           Conv2d-63            [-1, 128, 4, 4]         147,456
      BatchNorm2d-64            [-1, 128, 4, 4]             256
             ReLU-65            [-1, 128, 4, 4]               0
           Conv2d-66            [-1, 512, 4, 4]          65,536
      BatchNorm2d-67            [-1, 512, 4, 4]           1,024
             ReLU-68            [-1, 512, 4, 4]               0
       Bottleneck-69            [-1, 512, 4, 4]               0
           Conv2d-70            [-1, 128, 4, 4]          65,536
      BatchNorm2d-71            [-1, 128, 4, 4]             256
             ReLU-72            [-1, 128, 4, 4]               0
           Conv2d-73            [-1, 128, 4, 4]         147,456
      BatchNorm2d-74            [-1, 128, 4, 4]             256
             ReLU-75            [-1, 128, 4, 4]               0
           Conv2d-76            [-1, 512, 4, 4]          65,536
      BatchNorm2d-77            [-1, 512, 4, 4]           1,024
             ReLU-78            [-1, 512, 4, 4]               0
       Bottleneck-79            [-1, 512, 4, 4]               0
           Conv2d-80            [-1, 256, 4, 4]         131,072
      BatchNorm2d-81            [-1, 256, 4, 4]             512
             ReLU-82            [-1, 256, 4, 4]               0
           Conv2d-83            [-1, 256, 2, 2]         589,824
      BatchNorm2d-84            [-1, 256, 2, 2]             512
             ReLU-85            [-1, 256, 2, 2]               0
           Conv2d-86           [-1, 1024, 2, 2]         262,144
      BatchNorm2d-87           [-1, 1024, 2, 2]           2,048
           Conv2d-88           [-1, 1024, 2, 2]         524,288
      BatchNorm2d-89           [-1, 1024, 2, 2]           2,048
             ReLU-90           [-1, 1024, 2, 2]               0
       Bottleneck-91           [-1, 1024, 2, 2]               0
           Conv2d-92            [-1, 256, 2, 2]         262,144
      BatchNorm2d-93            [-1, 256, 2, 2]             512
             ReLU-94            [-1, 256, 2, 2]               0
           Conv2d-95            [-1, 256, 2, 2]         589,824
      BatchNorm2d-96            [-1, 256, 2, 2]             512
             ReLU-97            [-1, 256, 2, 2]               0
           Conv2d-98           [-1, 1024, 2, 2]         262,144
      BatchNorm2d-99           [-1, 1024, 2, 2]           2,048
            ReLU-100           [-1, 1024, 2, 2]               0
      Bottleneck-101           [-1, 1024, 2, 2]               0
          Conv2d-102            [-1, 256, 2, 2]         262,144
     BatchNorm2d-103            [-1, 256, 2, 2]             512
            ReLU-104            [-1, 256, 2, 2]               0
          Conv2d-105            [-1, 256, 2, 2]         589,824
     BatchNorm2d-106            [-1, 256, 2, 2]             512
            ReLU-107            [-1, 256, 2, 2]               0
          Conv2d-108           [-1, 1024, 2, 2]         262,144
     BatchNorm2d-109           [-1, 1024, 2, 2]           2,048
            ReLU-110           [-1, 1024, 2, 2]               0
      Bottleneck-111           [-1, 1024, 2, 2]               0
          Conv2d-112            [-1, 256, 2, 2]         262,144
     BatchNorm2d-113            [-1, 256, 2, 2]             512
            ReLU-114            [-1, 256, 2, 2]               0
          Conv2d-115            [-1, 256, 2, 2]         589,824
     BatchNorm2d-116            [-1, 256, 2, 2]             512
            ReLU-117            [-1, 256, 2, 2]               0
          Conv2d-118           [-1, 1024, 2, 2]         262,144
     BatchNorm2d-119           [-1, 1024, 2, 2]           2,048
            ReLU-120           [-1, 1024, 2, 2]               0
      Bottleneck-121           [-1, 1024, 2, 2]               0
          Conv2d-122            [-1, 256, 2, 2]         262,144
     BatchNorm2d-123            [-1, 256, 2, 2]             512
            ReLU-124            [-1, 256, 2, 2]               0
          Conv2d-125            [-1, 256, 2, 2]         589,824
     BatchNorm2d-126            [-1, 256, 2, 2]             512
            ReLU-127            [-1, 256, 2, 2]               0
          Conv2d-128           [-1, 1024, 2, 2]         262,144
     BatchNorm2d-129           [-1, 1024, 2, 2]           2,048
            ReLU-130           [-1, 1024, 2, 2]               0
      Bottleneck-131           [-1, 1024, 2, 2]               0
          Conv2d-132            [-1, 256, 2, 2]         262,144
     BatchNorm2d-133            [-1, 256, 2, 2]             512
            ReLU-134            [-1, 256, 2, 2]               0
          Conv2d-135            [-1, 256, 2, 2]         589,824
     BatchNorm2d-136            [-1, 256, 2, 2]             512
            ReLU-137            [-1, 256, 2, 2]               0
          Conv2d-138           [-1, 1024, 2, 2]         262,144
     BatchNorm2d-139           [-1, 1024, 2, 2]           2,048
            ReLU-140           [-1, 1024, 2, 2]               0
      Bottleneck-141           [-1, 1024, 2, 2]               0
          Conv2d-142            [-1, 512, 2, 2]         524,288
     BatchNorm2d-143            [-1, 512, 2, 2]           1,024
            ReLU-144            [-1, 512, 2, 2]               0
          Conv2d-145            [-1, 512, 1, 1]       2,359,296
     BatchNorm2d-146            [-1, 512, 1, 1]           1,024
            ReLU-147            [-1, 512, 1, 1]               0
          Conv2d-148           [-1, 2048, 1, 1]       1,048,576
     BatchNorm2d-149           [-1, 2048, 1, 1]           4,096
          Conv2d-150           [-1, 2048, 1, 1]       2,097,152
     BatchNorm2d-151           [-1, 2048, 1, 1]           4,096
            ReLU-152           [-1, 2048, 1, 1]               0
      Bottleneck-153           [-1, 2048, 1, 1]               0
          Conv2d-154            [-1, 512, 1, 1]       1,048,576
     BatchNorm2d-155            [-1, 512, 1, 1]           1,024
            ReLU-156            [-1, 512, 1, 1]               0
          Conv2d-157            [-1, 512, 1, 1]       2,359,296
     BatchNorm2d-158            [-1, 512, 1, 1]           1,024
            ReLU-159            [-1, 512, 1, 1]               0
          Conv2d-160           [-1, 2048, 1, 1]       1,048,576
     BatchNorm2d-161           [-1, 2048, 1, 1]           4,096
            ReLU-162           [-1, 2048, 1, 1]               0
      Bottleneck-163           [-1, 2048, 1, 1]               0
          Conv2d-164            [-1, 512, 1, 1]       1,048,576
     BatchNorm2d-165            [-1, 512, 1, 1]           1,024
            ReLU-166            [-1, 512, 1, 1]               0
          Conv2d-167            [-1, 512, 1, 1]       2,359,296
     BatchNorm2d-168            [-1, 512, 1, 1]           1,024
            ReLU-169            [-1, 512, 1, 1]               0
          Conv2d-170           [-1, 2048, 1, 1]       1,048,576
     BatchNorm2d-171           [-1, 2048, 1, 1]           4,096
            ReLU-172           [-1, 2048, 1, 1]               0
      Bottleneck-173           [-1, 2048, 1, 1]               0
AdaptiveAvgPool2d-174           [-1, 2048, 1, 1]               0
          Linear-175                 [-1, 1000]       2,049,000
          ResNet-176                 [-1, 1000]               0
     BatchNorm1d-177                 [-1, 1000]           2,000
         Dropout-178                 [-1, 1000]               0
          Linear-179                 [-1, 4096]       4,100,096
     BatchNorm1d-180                 [-1, 4096]           8,192
         Dropout-181                 [-1, 4096]               0
          Linear-182                   [-1, 10]          40,970
================================================================
Total params: 29,708,296
Trainable params: 29,708,296
Non-trainable params: 0
----------------------------------------------------------------
Input size (MB): 0.00
Forward/backward pass size (MB): 6.01
Params size (MB): 113.33
Estimated Total Size (MB): 119.34
----------------------------------------------------------------
Iteration:500  Loss:tensor(1.5227, device='cuda:0', grad_fn=<NllLossBackward>)  Accuracy:tensor(51, device='cuda:0')
----------------------------------------------------------------
        Layer (type)               Output Shape         Param #
================================================================
            Conv2d-1            [-1, 3, 32, 32]               6
            Conv2d-2           [-1, 64, 16, 16]           9,408
       BatchNorm2d-3           [-1, 64, 16, 16]             128
              ReLU-4           [-1, 64, 16, 16]               0
         MaxPool2d-5             [-1, 64, 8, 8]               0
            Conv2d-6             [-1, 64, 8, 8]           4,096
       BatchNorm2d-7             [-1, 64, 8, 8]             128
              ReLU-8             [-1, 64, 8, 8]               0
            Conv2d-9             [-1, 64, 8, 8]          36,864
      BatchNorm2d-10             [-1, 64, 8, 8]             128
             ReLU-11             [-1, 64, 8, 8]               0
           Conv2d-12            [-1, 256, 8, 8]          16,384
      BatchNorm2d-13            [-1, 256, 8, 8]             512
           Conv2d-14            [-1, 256, 8, 8]          16,384
      BatchNorm2d-15            [-1, 256, 8, 8]             512
             ReLU-16            [-1, 256, 8, 8]               0
       Bottleneck-17            [-1, 256, 8, 8]               0
           Conv2d-18             [-1, 64, 8, 8]          16,384
      BatchNorm2d-19             [-1, 64, 8, 8]             128
             ReLU-20             [-1, 64, 8, 8]               0
           Conv2d-21             [-1, 64, 8, 8]          36,864
      BatchNorm2d-22             [-1, 64, 8, 8]             128
             ReLU-23             [-1, 64, 8, 8]               0
           Conv2d-24            [-1, 256, 8, 8]          16,384
      BatchNorm2d-25            [-1, 256, 8, 8]             512
             ReLU-26            [-1, 256, 8, 8]               0
       Bottleneck-27            [-1, 256, 8, 8]               0
           Conv2d-28             [-1, 64, 8, 8]          16,384
      BatchNorm2d-29             [-1, 64, 8, 8]             128
             ReLU-30             [-1, 64, 8, 8]               0
           Conv2d-31             [-1, 64, 8, 8]          36,864
      BatchNorm2d-32             [-1, 64, 8, 8]             128
             ReLU-33             [-1, 64, 8, 8]               0
           Conv2d-34            [-1, 256, 8, 8]          16,384
      BatchNorm2d-35            [-1, 256, 8, 8]             512
             ReLU-36            [-1, 256, 8, 8]               0
       Bottleneck-37            [-1, 256, 8, 8]               0
           Conv2d-38            [-1, 128, 8, 8]          32,768
      BatchNorm2d-39            [-1, 128, 8, 8]             256
             ReLU-40            [-1, 128, 8, 8]               0
           Conv2d-41            [-1, 128, 4, 4]         147,456
      BatchNorm2d-42            [-1, 128, 4, 4]             256
             ReLU-43            [-1, 128, 4, 4]               0
           Conv2d-44            [-1, 512, 4, 4]          65,536
      BatchNorm2d-45            [-1, 512, 4, 4]           1,024
           Conv2d-46            [-1, 512, 4, 4]         131,072
      BatchNorm2d-47            [-1, 512, 4, 4]           1,024
             ReLU-48            [-1, 512, 4, 4]               0
       Bottleneck-49            [-1, 512, 4, 4]               0
           Conv2d-50            [-1, 128, 4, 4]          65,536
      BatchNorm2d-51            [-1, 128, 4, 4]             256
             ReLU-52            [-1, 128, 4, 4]               0
           Conv2d-53            [-1, 128, 4, 4]         147,456
      BatchNorm2d-54            [-1, 128, 4, 4]             256
             ReLU-55            [-1, 128, 4, 4]               0
           Conv2d-56            [-1, 512, 4, 4]          65,536
      BatchNorm2d-57            [-1, 512, 4, 4]           1,024
             ReLU-58            [-1, 512, 4, 4]               0
       Bottleneck-59            [-1, 512, 4, 4]               0
           Conv2d-60            [-1, 128, 4, 4]          65,536
      BatchNorm2d-61            [-1, 128, 4, 4]             256
             ReLU-62            [-1, 128, 4, 4]               0
           Conv2d-63            [-1, 128, 4, 4]         147,456
      BatchNorm2d-64            [-1, 128, 4, 4]             256
             ReLU-65            [-1, 128, 4, 4]               0
           Conv2d-66            [-1, 512, 4, 4]          65,536
      BatchNorm2d-67            [-1, 512, 4, 4]           1,024
             ReLU-68            [-1, 512, 4, 4]               0
       Bottleneck-69            [-1, 512, 4, 4]               0
           Conv2d-70            [-1, 128, 4, 4]          65,536
      BatchNorm2d-71            [-1, 128, 4, 4]             256
             ReLU-72            [-1, 128, 4, 4]               0
           Conv2d-73            [-1, 128, 4, 4]         147,456
      BatchNorm2d-74            [-1, 128, 4, 4]             256
             ReLU-75            [-1, 128, 4, 4]               0
           Conv2d-76            [-1, 512, 4, 4]          65,536
      BatchNorm2d-77            [-1, 512, 4, 4]           1,024
             ReLU-78            [-1, 512, 4, 4]               0
       Bottleneck-79            [-1, 512, 4, 4]               0
           Conv2d-80            [-1, 256, 4, 4]         131,072
      BatchNorm2d-81            [-1, 256, 4, 4]             512
             ReLU-82            [-1, 256, 4, 4]               0
           Conv2d-83            [-1, 256, 2, 2]         589,824
      BatchNorm2d-84            [-1, 256, 2, 2]             512
             ReLU-85            [-1, 256, 2, 2]               0
           Conv2d-86           [-1, 1024, 2, 2]         262,144
      BatchNorm2d-87           [-1, 1024, 2, 2]           2,048
           Conv2d-88           [-1, 1024, 2, 2]         524,288
      BatchNorm2d-89           [-1, 1024, 2, 2]           2,048
             ReLU-90           [-1, 1024, 2, 2]               0
       Bottleneck-91           [-1, 1024, 2, 2]               0
           Conv2d-92            [-1, 256, 2, 2]         262,144
      BatchNorm2d-93            [-1, 256, 2, 2]             512
             ReLU-94            [-1, 256, 2, 2]               0
           Conv2d-95            [-1, 256, 2, 2]         589,824
      BatchNorm2d-96            [-1, 256, 2, 2]             512
             ReLU-97            [-1, 256, 2, 2]               0
           Conv2d-98           [-1, 1024, 2, 2]         262,144
      BatchNorm2d-99           [-1, 1024, 2, 2]           2,048
            ReLU-100           [-1, 1024, 2, 2]               0
      Bottleneck-101           [-1, 1024, 2, 2]               0
          Conv2d-102            [-1, 256, 2, 2]         262,144
     BatchNorm2d-103            [-1, 256, 2, 2]             512
            ReLU-104            [-1, 256, 2, 2]               0
          Conv2d-105            [-1, 256, 2, 2]         589,824
     BatchNorm2d-106            [-1, 256, 2, 2]             512
            ReLU-107            [-1, 256, 2, 2]               0
          Conv2d-108           [-1, 1024, 2, 2]         262,144
     BatchNorm2d-109           [-1, 1024, 2, 2]           2,048
            ReLU-110           [-1, 1024, 2, 2]               0
      Bottleneck-111           [-1, 1024, 2, 2]               0
          Conv2d-112            [-1, 256, 2, 2]         262,144
     BatchNorm2d-113            [-1, 256, 2, 2]             512
            ReLU-114            [-1, 256, 2, 2]               0
          Conv2d-115            [-1, 256, 2, 2]         589,824
     BatchNorm2d-116            [-1, 256, 2, 2]             512
            ReLU-117            [-1, 256, 2, 2]               0
          Conv2d-118           [-1, 1024, 2, 2]         262,144
     BatchNorm2d-119           [-1, 1024, 2, 2]           2,048
            ReLU-120           [-1, 1024, 2, 2]               0
      Bottleneck-121           [-1, 1024, 2, 2]               0
          Conv2d-122            [-1, 256, 2, 2]         262,144
     BatchNorm2d-123            [-1, 256, 2, 2]             512
            ReLU-124            [-1, 256, 2, 2]               0
          Conv2d-125            [-1, 256, 2, 2]         589,824
     BatchNorm2d-126            [-1, 256, 2, 2]             512
            ReLU-127            [-1, 256, 2, 2]               0
          Conv2d-128           [-1, 1024, 2, 2]         262,144
     BatchNorm2d-129           [-1, 1024, 2, 2]           2,048
            ReLU-130           [-1, 1024, 2, 2]               0
      Bottleneck-131           [-1, 1024, 2, 2]               0
          Conv2d-132            [-1, 256, 2, 2]         262,144
     BatchNorm2d-133            [-1, 256, 2, 2]             512
            ReLU-134            [-1, 256, 2, 2]               0
          Conv2d-135            [-1, 256, 2, 2]         589,824
     BatchNorm2d-136            [-1, 256, 2, 2]             512
            ReLU-137            [-1, 256, 2, 2]               0
          Conv2d-138           [-1, 1024, 2, 2]         262,144
     BatchNorm2d-139           [-1, 1024, 2, 2]           2,048
            ReLU-140           [-1, 1024, 2, 2]               0
      Bottleneck-141           [-1, 1024, 2, 2]               0
          Conv2d-142            [-1, 512, 2, 2]         524,288
     BatchNorm2d-143            [-1, 512, 2, 2]           1,024
            ReLU-144            [-1, 512, 2, 2]               0
          Conv2d-145            [-1, 512, 1, 1]       2,359,296
     BatchNorm2d-146            [-1, 512, 1, 1]           1,024
            ReLU-147            [-1, 512, 1, 1]               0
          Conv2d-148           [-1, 2048, 1, 1]       1,048,576
     BatchNorm2d-149           [-1, 2048, 1, 1]           4,096
          Conv2d-150           [-1, 2048, 1, 1]       2,097,152
     BatchNorm2d-151           [-1, 2048, 1, 1]           4,096
            ReLU-152           [-1, 2048, 1, 1]               0
      Bottleneck-153           [-1, 2048, 1, 1]               0
          Conv2d-154            [-1, 512, 1, 1]       1,048,576
     BatchNorm2d-155            [-1, 512, 1, 1]           1,024
            ReLU-156            [-1, 512, 1, 1]               0
          Conv2d-157            [-1, 512, 1, 1]       2,359,296
     BatchNorm2d-158            [-1, 512, 1, 1]           1,024
            ReLU-159            [-1, 512, 1, 1]               0
          Conv2d-160           [-1, 2048, 1, 1]       1,048,576
     BatchNorm2d-161           [-1, 2048, 1, 1]           4,096
            ReLU-162           [-1, 2048, 1, 1]               0
      Bottleneck-163           [-1, 2048, 1, 1]               0
          Conv2d-164            [-1, 512, 1, 1]       1,048,576
     BatchNorm2d-165            [-1, 512, 1, 1]           1,024
            ReLU-166            [-1, 512, 1, 1]               0
          Conv2d-167            [-1, 512, 1, 1]       2,359,296
     BatchNorm2d-168            [-1, 512, 1, 1]           1,024
            ReLU-169            [-1, 512, 1, 1]               0
          Conv2d-170           [-1, 2048, 1, 1]       1,048,576
     BatchNorm2d-171           [-1, 2048, 1, 1]           4,096
            ReLU-172           [-1, 2048, 1, 1]               0
      Bottleneck-173           [-1, 2048, 1, 1]               0
AdaptiveAvgPool2d-174           [-1, 2048, 1, 1]               0
          Linear-175                 [-1, 1000]       2,049,000
          ResNet-176                 [-1, 1000]               0
     BatchNorm1d-177                 [-1, 1000]           2,000
         Dropout-178                 [-1, 1000]               0
          Linear-179                 [-1, 4096]       4,100,096
     BatchNorm1d-180                 [-1, 4096]           8,192
         Dropout-181                 [-1, 4096]               0
          Linear-182                   [-1, 10]          40,970
================================================================
Total params: 29,708,296
Trainable params: 29,708,296
Non-trainable params: 0
----------------------------------------------------------------
Input size (MB): 0.00
Forward/backward pass size (MB): 6.01
Params size (MB): 113.33
Estimated Total Size (MB): 119.34
----------------------------------------------------------------
Iteration:500  Loss:tensor(1.0402, device='cuda:0', grad_fn=<NllLossBackward>)  Accuracy:tensor(82, device='cuda:0')
…
Iteration:194500  Loss:tensor(0.2582, device='cuda:0', grad_fn=<NllLossBackward>)  Accuracy:tensor(86, device='cuda:0')
echo: 153
loss: 0.15715397568051756
accuracy: 0.9420937006319114
Iteration:195000  Loss:tensor(0.1924, device='cuda:0', grad_fn=<NllLossBackward>)  Accuracy:tensor(86, device='cuda:0')
Iteration:195500  Loss:tensor(0.1528, device='cuda:0', grad_fn=<NllLossBackward>)  Accuracy:tensor(86, device='cuda:0')
----------------------------------------------------------------
        Layer (type)               Output Shape         Param #
================================================================
            Conv2d-1            [-1, 3, 32, 32]               6
            Conv2d-2           [-1, 64, 16, 16]           9,408
       BatchNorm2d-3           [-1, 64, 16, 16]             128
              ReLU-4           [-1, 64, 16, 16]               0
         MaxPool2d-5             [-1, 64, 8, 8]               0
            Conv2d-6             [-1, 64, 8, 8]           4,096
       BatchNorm2d-7             [-1, 64, 8, 8]             128
              ReLU-8             [-1, 64, 8, 8]               0
            Conv2d-9             [-1, 64, 8, 8]          36,864
      BatchNorm2d-10             [-1, 64, 8, 8]             128
             ReLU-11             [-1, 64, 8, 8]               0
           Conv2d-12            [-1, 256, 8, 8]          16,384
      BatchNorm2d-13            [-1, 256, 8, 8]             512
           Conv2d-14            [-1, 256, 8, 8]          16,384
      BatchNorm2d-15            [-1, 256, 8, 8]             512
             ReLU-16            [-1, 256, 8, 8]               0
       Bottleneck-17            [-1, 256, 8, 8]               0
           Conv2d-18             [-1, 64, 8, 8]          16,384
      BatchNorm2d-19             [-1, 64, 8, 8]             128
             ReLU-20             [-1, 64, 8, 8]               0
           Conv2d-21             [-1, 64, 8, 8]          36,864
      BatchNorm2d-22             [-1, 64, 8, 8]             128
             ReLU-23             [-1, 64, 8, 8]               0
           Conv2d-24            [-1, 256, 8, 8]          16,384
      BatchNorm2d-25            [-1, 256, 8, 8]             512
             ReLU-26            [-1, 256, 8, 8]               0
       Bottleneck-27            [-1, 256, 8, 8]               0
           Conv2d-28             [-1, 64, 8, 8]          16,384
      BatchNorm2d-29             [-1, 64, 8, 8]             128
             ReLU-30             [-1, 64, 8, 8]               0
           Conv2d-31             [-1, 64, 8, 8]          36,864
      BatchNorm2d-32             [-1, 64, 8, 8]             128
             ReLU-33             [-1, 64, 8, 8]               0
           Conv2d-34            [-1, 256, 8, 8]          16,384
      BatchNorm2d-35            [-1, 256, 8, 8]             512
             ReLU-36            [-1, 256, 8, 8]               0
       Bottleneck-37            [-1, 256, 8, 8]               0
           Conv2d-38            [-1, 128, 8, 8]          32,768
      BatchNorm2d-39            [-1, 128, 8, 8]             256
             ReLU-40            [-1, 128, 8, 8]               0
           Conv2d-41            [-1, 128, 4, 4]         147,456
      BatchNorm2d-42            [-1, 128, 4, 4]             256
             ReLU-43            [-1, 128, 4, 4]               0
           Conv2d-44            [-1, 512, 4, 4]          65,536
      BatchNorm2d-45            [-1, 512, 4, 4]           1,024
           Conv2d-46            [-1, 512, 4, 4]         131,072
      BatchNorm2d-47            [-1, 512, 4, 4]           1,024
             ReLU-48            [-1, 512, 4, 4]               0
       Bottleneck-49            [-1, 512, 4, 4]               0
           Conv2d-50            [-1, 128, 4, 4]          65,536
      BatchNorm2d-51            [-1, 128, 4, 4]             256
             ReLU-52            [-1, 128, 4, 4]               0
           Conv2d-53            [-1, 128, 4, 4]         147,456
      BatchNorm2d-54            [-1, 128, 4, 4]             256
             ReLU-55            [-1, 128, 4, 4]               0
           Conv2d-56            [-1, 512, 4, 4]          65,536
      BatchNorm2d-57            [-1, 512, 4, 4]           1,024
             ReLU-58            [-1, 512, 4, 4]               0
       Bottleneck-59            [-1, 512, 4, 4]               0
           Conv2d-60            [-1, 128, 4, 4]          65,536
      BatchNorm2d-61            [-1, 128, 4, 4]             256
             ReLU-62            [-1, 128, 4, 4]               0
           Conv2d-63            [-1, 128, 4, 4]         147,456
      BatchNorm2d-64            [-1, 128, 4, 4]             256
             ReLU-65            [-1, 128, 4, 4]               0
           Conv2d-66            [-1, 512, 4, 4]          65,536
      BatchNorm2d-67            [-1, 512, 4, 4]           1,024
             ReLU-68            [-1, 512, 4, 4]               0
       Bottleneck-69            [-1, 512, 4, 4]               0
           Conv2d-70            [-1, 128, 4, 4]          65,536
      BatchNorm2d-71            [-1, 128, 4, 4]             256
             ReLU-72            [-1, 128, 4, 4]               0
           Conv2d-73            [-1, 128, 4, 4]         147,456
      BatchNorm2d-74            [-1, 128, 4, 4]             256
             ReLU-75            [-1, 128, 4, 4]               0
           Conv2d-76            [-1, 512, 4, 4]          65,536
      BatchNorm2d-77            [-1, 512, 4, 4]           1,024
             ReLU-78            [-1, 512, 4, 4]               0
       Bottleneck-79            [-1, 512, 4, 4]               0
           Conv2d-80            [-1, 256, 4, 4]         131,072
      BatchNorm2d-81            [-1, 256, 4, 4]             512
             ReLU-82            [-1, 256, 4, 4]               0
           Conv2d-83            [-1, 256, 2, 2]         589,824
      BatchNorm2d-84            [-1, 256, 2, 2]             512
             ReLU-85            [-1, 256, 2, 2]               0
           Conv2d-86           [-1, 1024, 2, 2]         262,144
      BatchNorm2d-87           [-1, 1024, 2, 2]           2,048
           Conv2d-88           [-1, 1024, 2, 2]         524,288
      BatchNorm2d-89           [-1, 1024, 2, 2]           2,048
             ReLU-90           [-1, 1024, 2, 2]               0
       Bottleneck-91           [-1, 1024, 2, 2]               0
           Conv2d-92            [-1, 256, 2, 2]         262,144
      BatchNorm2d-93            [-1, 256, 2, 2]             512
             ReLU-94            [-1, 256, 2, 2]               0
           Conv2d-95            [-1, 256, 2, 2]         589,824
      BatchNorm2d-96            [-1, 256, 2, 2]             512
             ReLU-97            [-1, 256, 2, 2]               0
           Conv2d-98           [-1, 1024, 2, 2]         262,144
      BatchNorm2d-99           [-1, 1024, 2, 2]           2,048
            ReLU-100           [-1, 1024, 2, 2]               0
      Bottleneck-101           [-1, 1024, 2, 2]               0
          Conv2d-102            [-1, 256, 2, 2]         262,144
     BatchNorm2d-103            [-1, 256, 2, 2]             512
            ReLU-104            [-1, 256, 2, 2]               0
          Conv2d-105            [-1, 256, 2, 2]         589,824
     BatchNorm2d-106            [-1, 256, 2, 2]             512
            ReLU-107            [-1, 256, 2, 2]               0
          Conv2d-108           [-1, 1024, 2, 2]         262,144
     BatchNorm2d-109           [-1, 1024, 2, 2]           2,048
            ReLU-110           [-1, 1024, 2, 2]               0
      Bottleneck-111           [-1, 1024, 2, 2]               0
          Conv2d-112            [-1, 256, 2, 2]         262,144
     BatchNorm2d-113            [-1, 256, 2, 2]             512
            ReLU-114            [-1, 256, 2, 2]               0
          Conv2d-115            [-1, 256, 2, 2]         589,824
     BatchNorm2d-116            [-1, 256, 2, 2]             512
            ReLU-117            [-1, 256, 2, 2]               0
          Conv2d-118           [-1, 1024, 2, 2]         262,144
     BatchNorm2d-119           [-1, 1024, 2, 2]           2,048
            ReLU-120           [-1, 1024, 2, 2]               0
      Bottleneck-121           [-1, 1024, 2, 2]               0
          Conv2d-122            [-1, 256, 2, 2]         262,144
     BatchNorm2d-123            [-1, 256, 2, 2]             512
            ReLU-124            [-1, 256, 2, 2]               0
          Conv2d-125            [-1, 256, 2, 2]         589,824
     BatchNorm2d-126            [-1, 256, 2, 2]             512
            ReLU-127            [-1, 256, 2, 2]               0
          Conv2d-128           [-1, 1024, 2, 2]         262,144
     BatchNorm2d-129           [-1, 1024, 2, 2]           2,048
            ReLU-130           [-1, 1024, 2, 2]               0
      Bottleneck-131           [-1, 1024, 2, 2]               0
          Conv2d-132            [-1, 256, 2, 2]         262,144
     BatchNorm2d-133            [-1, 256, 2, 2]             512
            ReLU-134            [-1, 256, 2, 2]               0
          Conv2d-135            [-1, 256, 2, 2]         589,824
     BatchNorm2d-136            [-1, 256, 2, 2]             512
            ReLU-137            [-1, 256, 2, 2]               0
          Conv2d-138           [-1, 1024, 2, 2]         262,144
     BatchNorm2d-139           [-1, 1024, 2, 2]           2,048
            ReLU-140           [-1, 1024, 2, 2]               0
      Bottleneck-141           [-1, 1024, 2, 2]               0
          Conv2d-142            [-1, 512, 2, 2]         524,288
     BatchNorm2d-143            [-1, 512, 2, 2]           1,024
            ReLU-144            [-1, 512, 2, 2]               0
          Conv2d-145            [-1, 512, 1, 1]       2,359,296
     BatchNorm2d-146            [-1, 512, 1, 1]           1,024
            ReLU-147            [-1, 512, 1, 1]               0
          Conv2d-148           [-1, 2048, 1, 1]       1,048,576
     BatchNorm2d-149           [-1, 2048, 1, 1]           4,096
          Conv2d-150           [-1, 2048, 1, 1]       2,097,152
     BatchNorm2d-151           [-1, 2048, 1, 1]           4,096
            ReLU-152           [-1, 2048, 1, 1]               0
      Bottleneck-153           [-1, 2048, 1, 1]               0
          Conv2d-154            [-1, 512, 1, 1]       1,048,576
     BatchNorm2d-155            [-1, 512, 1, 1]           1,024
            ReLU-156            [-1, 512, 1, 1]               0
          Conv2d-157            [-1, 512, 1, 1]       2,359,296
     BatchNorm2d-158            [-1, 512, 1, 1]           1,024
            ReLU-159            [-1, 512, 1, 1]               0
          Conv2d-160           [-1, 2048, 1, 1]       1,048,576
     BatchNorm2d-161           [-1, 2048, 1, 1]           4,096
            ReLU-162           [-1, 2048, 1, 1]               0
      Bottleneck-163           [-1, 2048, 1, 1]               0
          Conv2d-164            [-1, 512, 1, 1]       1,048,576
     BatchNorm2d-165            [-1, 512, 1, 1]           1,024
            ReLU-166            [-1, 512, 1, 1]               0
          Conv2d-167            [-1, 512, 1, 1]       2,359,296
     BatchNorm2d-168            [-1, 512, 1, 1]           1,024
            ReLU-169            [-1, 512, 1, 1]               0
          Conv2d-170           [-1, 2048, 1, 1]       1,048,576
     BatchNorm2d-171           [-1, 2048, 1, 1]           4,096
            ReLU-172           [-1, 2048, 1, 1]               0
      Bottleneck-173           [-1, 2048, 1, 1]               0
AdaptiveAvgPool2d-174           [-1, 2048, 1, 1]               0
          Linear-175                 [-1, 1000]       2,049,000
          ResNet-176                 [-1, 1000]               0
     BatchNorm1d-177                 [-1, 1000]           2,000
         Dropout-178                 [-1, 1000]               0
          Linear-179                 [-1, 4096]       4,100,096
     BatchNorm1d-180                 [-1, 4096]           8,192
         Dropout-181                 [-1, 4096]               0
          Linear-182                   [-1, 10]          40,970
================================================================
Total params: 29,708,296
Trainable params: 29,708,296
Non-trainable params: 0
----------------------------------------------------------------
Input size (MB): 0.00
Forward/backward pass size (MB): 6.01
Params size (MB): 113.33
Estimated Total Size (MB): 119.34
----------------------------------------------------------------
----------------------------------------------------------------
        Layer (type)               Output Shape         Param #
================================================================
            Conv2d-1            [-1, 3, 32, 32]               6
            Conv2d-2           [-1, 64, 16, 16]           9,408
       BatchNorm2d-3           [-1, 64, 16, 16]             128
              ReLU-4           [-1, 64, 16, 16]               0
         MaxPool2d-5             [-1, 64, 8, 8]               0
            Conv2d-6             [-1, 64, 8, 8]           4,096
       BatchNorm2d-7             [-1, 64, 8, 8]             128
              ReLU-8             [-1, 64, 8, 8]               0
            Conv2d-9             [-1, 64, 8, 8]          36,864
      BatchNorm2d-10             [-1, 64, 8, 8]             128
             ReLU-11             [-1, 64, 8, 8]               0
           Conv2d-12            [-1, 256, 8, 8]          16,384
      BatchNorm2d-13            [-1, 256, 8, 8]             512
           Conv2d-14            [-1, 256, 8, 8]          16,384
      BatchNorm2d-15            [-1, 256, 8, 8]             512
             ReLU-16            [-1, 256, 8, 8]               0
       Bottleneck-17            [-1, 256, 8, 8]               0
           Conv2d-18             [-1, 64, 8, 8]          16,384
      BatchNorm2d-19             [-1, 64, 8, 8]             128
             ReLU-20             [-1, 64, 8, 8]               0
           Conv2d-21             [-1, 64, 8, 8]          36,864
      BatchNorm2d-22             [-1, 64, 8, 8]             128
             ReLU-23             [-1, 64, 8, 8]               0
           Conv2d-24            [-1, 256, 8, 8]          16,384
      BatchNorm2d-25            [-1, 256, 8, 8]             512
             ReLU-26            [-1, 256, 8, 8]               0
       Bottleneck-27            [-1, 256, 8, 8]               0
           Conv2d-28             [-1, 64, 8, 8]          16,384
      BatchNorm2d-29             [-1, 64, 8, 8]             128
             ReLU-30             [-1, 64, 8, 8]               0
           Conv2d-31             [-1, 64, 8, 8]          36,864
      BatchNorm2d-32             [-1, 64, 8, 8]             128
             ReLU-33             [-1, 64, 8, 8]               0
           Conv2d-34            [-1, 256, 8, 8]          16,384
      BatchNorm2d-35            [-1, 256, 8, 8]             512
             ReLU-36            [-1, 256, 8, 8]               0
       Bottleneck-37            [-1, 256, 8, 8]               0
           Conv2d-38            [-1, 128, 8, 8]          32,768
      BatchNorm2d-39            [-1, 128, 8, 8]             256
             ReLU-40            [-1, 128, 8, 8]               0
           Conv2d-41            [-1, 128, 4, 4]         147,456
      BatchNorm2d-42            [-1, 128, 4, 4]             256
             ReLU-43            [-1, 128, 4, 4]               0
           Conv2d-44            [-1, 512, 4, 4]          65,536
      BatchNorm2d-45            [-1, 512, 4, 4]           1,024
           Conv2d-46            [-1, 512, 4, 4]         131,072
      BatchNorm2d-47            [-1, 512, 4, 4]           1,024
             ReLU-48            [-1, 512, 4, 4]               0
       Bottleneck-49            [-1, 512, 4, 4]               0
           Conv2d-50            [-1, 128, 4, 4]          65,536
      BatchNorm2d-51            [-1, 128, 4, 4]             256
             ReLU-52            [-1, 128, 4, 4]               0
           Conv2d-53            [-1, 128, 4, 4]         147,456
      BatchNorm2d-54            [-1, 128, 4, 4]             256
             ReLU-55            [-1, 128, 4, 4]               0
           Conv2d-56            [-1, 512, 4, 4]          65,536
      BatchNorm2d-57            [-1, 512, 4, 4]           1,024
             ReLU-58            [-1, 512, 4, 4]               0
       Bottleneck-59            [-1, 512, 4, 4]               0
           Conv2d-60            [-1, 128, 4, 4]          65,536
      BatchNorm2d-61            [-1, 128, 4, 4]             256
             ReLU-62            [-1, 128, 4, 4]               0
           Conv2d-63            [-1, 128, 4, 4]         147,456
      BatchNorm2d-64            [-1, 128, 4, 4]             256
             ReLU-65            [-1, 128, 4, 4]               0
           Conv2d-66            [-1, 512, 4, 4]          65,536
      BatchNorm2d-67            [-1, 512, 4, 4]           1,024
             ReLU-68            [-1, 512, 4, 4]               0
       Bottleneck-69            [-1, 512, 4, 4]               0
           Conv2d-70            [-1, 128, 4, 4]          65,536
      BatchNorm2d-71            [-1, 128, 4, 4]             256
             ReLU-72            [-1, 128, 4, 4]               0
           Conv2d-73            [-1, 128, 4, 4]         147,456
      BatchNorm2d-74            [-1, 128, 4, 4]             256
             ReLU-75            [-1, 128, 4, 4]               0
           Conv2d-76            [-1, 512, 4, 4]          65,536
      BatchNorm2d-77            [-1, 512, 4, 4]           1,024
             ReLU-78            [-1, 512, 4, 4]               0
       Bottleneck-79            [-1, 512, 4, 4]               0
           Conv2d-80            [-1, 256, 4, 4]         131,072
      BatchNorm2d-81            [-1, 256, 4, 4]             512
             ReLU-82            [-1, 256, 4, 4]               0
           Conv2d-83            [-1, 256, 2, 2]         589,824
      BatchNorm2d-84            [-1, 256, 2, 2]             512
             ReLU-85            [-1, 256, 2, 2]               0
           Conv2d-86           [-1, 1024, 2, 2]         262,144
      BatchNorm2d-87           [-1, 1024, 2, 2]           2,048
           Conv2d-88           [-1, 1024, 2, 2]         524,288
      BatchNorm2d-89           [-1, 1024, 2, 2]           2,048
             ReLU-90           [-1, 1024, 2, 2]               0
       Bottleneck-91           [-1, 1024, 2, 2]               0
           Conv2d-92            [-1, 256, 2, 2]         262,144
      BatchNorm2d-93            [-1, 256, 2, 2]             512
             ReLU-94            [-1, 256, 2, 2]               0
           Conv2d-95            [-1, 256, 2, 2]         589,824
      BatchNorm2d-96            [-1, 256, 2, 2]             512
             ReLU-97            [-1, 256, 2, 2]               0
           Conv2d-98           [-1, 1024, 2, 2]         262,144
      BatchNorm2d-99           [-1, 1024, 2, 2]           2,048
            ReLU-100           [-1, 1024, 2, 2]               0
      Bottleneck-101           [-1, 1024, 2, 2]               0
          Conv2d-102            [-1, 256, 2, 2]         262,144
     BatchNorm2d-103            [-1, 256, 2, 2]             512
            ReLU-104            [-1, 256, 2, 2]               0
          Conv2d-105            [-1, 256, 2, 2]         589,824
     BatchNorm2d-106            [-1, 256, 2, 2]             512
            ReLU-107            [-1, 256, 2, 2]               0
          Conv2d-108           [-1, 1024, 2, 2]         262,144
     BatchNorm2d-109           [-1, 1024, 2, 2]           2,048
            ReLU-110           [-1, 1024, 2, 2]               0
      Bottleneck-111           [-1, 1024, 2, 2]               0
          Conv2d-112            [-1, 256, 2, 2]         262,144
     BatchNorm2d-113            [-1, 256, 2, 2]             512
            ReLU-114            [-1, 256, 2, 2]               0
          Conv2d-115            [-1, 256, 2, 2]         589,824
     BatchNorm2d-116            [-1, 256, 2, 2]             512
            ReLU-117            [-1, 256, 2, 2]               0
          Conv2d-118           [-1, 1024, 2, 2]         262,144
     BatchNorm2d-119           [-1, 1024, 2, 2]           2,048
            ReLU-120           [-1, 1024, 2, 2]               0
      Bottleneck-121           [-1, 1024, 2, 2]               0
          Conv2d-122            [-1, 256, 2, 2]         262,144
     BatchNorm2d-123            [-1, 256, 2, 2]             512
            ReLU-124            [-1, 256, 2, 2]               0
          Conv2d-125            [-1, 256, 2, 2]         589,824
     BatchNorm2d-126            [-1, 256, 2, 2]             512
            ReLU-127            [-1, 256, 2, 2]               0
          Conv2d-128           [-1, 1024, 2, 2]         262,144
     BatchNorm2d-129           [-1, 1024, 2, 2]           2,048
            ReLU-130           [-1, 1024, 2, 2]               0
      Bottleneck-131           [-1, 1024, 2, 2]               0
          Conv2d-132            [-1, 256, 2, 2]         262,144
     BatchNorm2d-133            [-1, 256, 2, 2]             512
            ReLU-134            [-1, 256, 2, 2]               0
          Conv2d-135            [-1, 256, 2, 2]         589,824
     BatchNorm2d-136            [-1, 256, 2, 2]             512
            ReLU-137            [-1, 256, 2, 2]               0
          Conv2d-138           [-1, 1024, 2, 2]         262,144
     BatchNorm2d-139           [-1, 1024, 2, 2]           2,048
            ReLU-140           [-1, 1024, 2, 2]               0
      Bottleneck-141           [-1, 1024, 2, 2]               0
          Conv2d-142            [-1, 512, 2, 2]         524,288
     BatchNorm2d-143            [-1, 512, 2, 2]           1,024
            ReLU-144            [-1, 512, 2, 2]               0
          Conv2d-145            [-1, 512, 1, 1]       2,359,296
     BatchNorm2d-146            [-1, 512, 1, 1]           1,024
            ReLU-147            [-1, 512, 1, 1]               0
          Conv2d-148           [-1, 2048, 1, 1]       1,048,576
     BatchNorm2d-149           [-1, 2048, 1, 1]           4,096
          Conv2d-150           [-1, 2048, 1, 1]       2,097,152
     BatchNorm2d-151           [-1, 2048, 1, 1]           4,096
            ReLU-152           [-1, 2048, 1, 1]               0
      Bottleneck-153           [-1, 2048, 1, 1]               0
          Conv2d-154            [-1, 512, 1, 1]       1,048,576
     BatchNorm2d-155            [-1, 512, 1, 1]           1,024
            ReLU-156            [-1, 512, 1, 1]               0
          Conv2d-157            [-1, 512, 1, 1]       2,359,296
     BatchNorm2d-158            [-1, 512, 1, 1]           1,024
            ReLU-159            [-1, 512, 1, 1]               0
          Conv2d-160           [-1, 2048, 1, 1]       1,048,576
     BatchNorm2d-161           [-1, 2048, 1, 1]           4,096
            ReLU-162           [-1, 2048, 1, 1]               0
      Bottleneck-163           [-1, 2048, 1, 1]               0
          Conv2d-164            [-1, 512, 1, 1]       1,048,576
     BatchNorm2d-165            [-1, 512, 1, 1]           1,024
            ReLU-166            [-1, 512, 1, 1]               0
          Conv2d-167            [-1, 512, 1, 1]       2,359,296
     BatchNorm2d-168            [-1, 512, 1, 1]           1,024
            ReLU-169            [-1, 512, 1, 1]               0
          Conv2d-170           [-1, 2048, 1, 1]       1,048,576
     BatchNorm2d-171           [-1, 2048, 1, 1]           4,096
            ReLU-172           [-1, 2048, 1, 1]               0
      Bottleneck-173           [-1, 2048, 1, 1]               0
AdaptiveAvgPool2d-174           [-1, 2048, 1, 1]               0
          Linear-175                 [-1, 1000]       2,049,000
          ResNet-176                 [-1, 1000]               0
     BatchNorm1d-177                 [-1, 1000]           2,000
         Dropout-178                 [-1, 1000]               0
          Linear-179                 [-1, 4096]       4,100,096
     BatchNorm1d-180                 [-1, 4096]           8,192
         Dropout-181                 [-1, 4096]               0
          Linear-182                   [-1, 10]          40,970
================================================================
Total params: 29,708,296
Trainable params: 29,708,296
Non-trainable params: 0
----------------------------------------------------------------
Input size (MB): 0.00
Forward/backward pass size (MB): 6.01
Params size (MB): 113.33
Estimated Total Size (MB): 119.34
----------------------------------------------------------------
----------------------------------------------------------------
        Layer (type)               Output Shape         Param #
================================================================
            Conv2d-1            [-1, 3, 32, 32]               6
            Conv2d-2           [-1, 64, 16, 16]           9,408
       BatchNorm2d-3           [-1, 64, 16, 16]             128
              ReLU-4           [-1, 64, 16, 16]               0
         MaxPool2d-5             [-1, 64, 8, 8]               0
            Conv2d-6             [-1, 64, 8, 8]           4,096
       BatchNorm2d-7             [-1, 64, 8, 8]             128
              ReLU-8             [-1, 64, 8, 8]               0
            Conv2d-9             [-1, 64, 8, 8]          36,864
      BatchNorm2d-10             [-1, 64, 8, 8]             128
             ReLU-11             [-1, 64, 8, 8]               0
           Conv2d-12            [-1, 256, 8, 8]          16,384
      BatchNorm2d-13            [-1, 256, 8, 8]             512
           Conv2d-14            [-1, 256, 8, 8]          16,384
      BatchNorm2d-15            [-1, 256, 8, 8]             512
             ReLU-16            [-1, 256, 8, 8]               0
       Bottleneck-17            [-1, 256, 8, 8]               0
           Conv2d-18             [-1, 64, 8, 8]          16,384
      BatchNorm2d-19             [-1, 64, 8, 8]             128
             ReLU-20             [-1, 64, 8, 8]               0
           Conv2d-21             [-1, 64, 8, 8]          36,864
      BatchNorm2d-22             [-1, 64, 8, 8]             128
             ReLU-23             [-1, 64, 8, 8]               0
           Conv2d-24            [-1, 256, 8, 8]          16,384
      BatchNorm2d-25            [-1, 256, 8, 8]             512
             ReLU-26            [-1, 256, 8, 8]               0
       Bottleneck-27            [-1, 256, 8, 8]               0
           Conv2d-28             [-1, 64, 8, 8]          16,384
      BatchNorm2d-29             [-1, 64, 8, 8]             128
             ReLU-30             [-1, 64, 8, 8]               0
           Conv2d-31             [-1, 64, 8, 8]          36,864
      BatchNorm2d-32             [-1, 64, 8, 8]             128
             ReLU-33             [-1, 64, 8, 8]               0
           Conv2d-34            [-1, 256, 8, 8]          16,384
      BatchNorm2d-35            [-1, 256, 8, 8]             512
             ReLU-36            [-1, 256, 8, 8]               0
       Bottleneck-37            [-1, 256, 8, 8]               0
           Conv2d-38            [-1, 128, 8, 8]          32,768
      BatchNorm2d-39            [-1, 128, 8, 8]             256
             ReLU-40            [-1, 128, 8, 8]               0
           Conv2d-41            [-1, 128, 4, 4]         147,456
      BatchNorm2d-42            [-1, 128, 4, 4]             256
             ReLU-43            [-1, 128, 4, 4]               0
           Conv2d-44            [-1, 512, 4, 4]          65,536
      BatchNorm2d-45            [-1, 512, 4, 4]           1,024
           Conv2d-46            [-1, 512, 4, 4]         131,072
      BatchNorm2d-47            [-1, 512, 4, 4]           1,024
             ReLU-48            [-1, 512, 4, 4]               0
       Bottleneck-49            [-1, 512, 4, 4]               0
           Conv2d-50            [-1, 128, 4, 4]          65,536
      BatchNorm2d-51            [-1, 128, 4, 4]             256
             ReLU-52            [-1, 128, 4, 4]               0
           Conv2d-53            [-1, 128, 4, 4]         147,456
      BatchNorm2d-54            [-1, 128, 4, 4]             256
             ReLU-55            [-1, 128, 4, 4]               0
           Conv2d-56            [-1, 512, 4, 4]          65,536
      BatchNorm2d-57            [-1, 512, 4, 4]           1,024
             ReLU-58            [-1, 512, 4, 4]               0
       Bottleneck-59            [-1, 512, 4, 4]               0
           Conv2d-60            [-1, 128, 4, 4]          65,536
      BatchNorm2d-61            [-1, 128, 4, 4]             256
             ReLU-62            [-1, 128, 4, 4]               0
           Conv2d-63            [-1, 128, 4, 4]         147,456
      BatchNorm2d-64            [-1, 128, 4, 4]             256
             ReLU-65            [-1, 128, 4, 4]               0
           Conv2d-66            [-1, 512, 4, 4]          65,536
      BatchNorm2d-67            [-1, 512, 4, 4]           1,024
             ReLU-68            [-1, 512, 4, 4]               0
       Bottleneck-69            [-1, 512, 4, 4]               0
           Conv2d-70            [-1, 128, 4, 4]          65,536
      BatchNorm2d-71            [-1, 128, 4, 4]             256
             ReLU-72            [-1, 128, 4, 4]               0
           Conv2d-73            [-1, 128, 4, 4]         147,456
      BatchNorm2d-74            [-1, 128, 4, 4]             256
             ReLU-75            [-1, 128, 4, 4]               0
           Conv2d-76            [-1, 512, 4, 4]          65,536
      BatchNorm2d-77            [-1, 512, 4, 4]           1,024
             ReLU-78            [-1, 512, 4, 4]               0
       Bottleneck-79            [-1, 512, 4, 4]               0
           Conv2d-80            [-1, 256, 4, 4]         131,072
      BatchNorm2d-81            [-1, 256, 4, 4]             512
             ReLU-82            [-1, 256, 4, 4]               0
           Conv2d-83            [-1, 256, 2, 2]         589,824
      BatchNorm2d-84            [-1, 256, 2, 2]             512
             ReLU-85            [-1, 256, 2, 2]               0
           Conv2d-86           [-1, 1024, 2, 2]         262,144
      BatchNorm2d-87           [-1, 1024, 2, 2]           2,048
           Conv2d-88           [-1, 1024, 2, 2]         524,288
      BatchNorm2d-89           [-1, 1024, 2, 2]           2,048
             ReLU-90           [-1, 1024, 2, 2]               0
       Bottleneck-91           [-1, 1024, 2, 2]               0
           Conv2d-92            [-1, 256, 2, 2]         262,144
      BatchNorm2d-93            [-1, 256, 2, 2]             512
             ReLU-94            [-1, 256, 2, 2]               0
           Conv2d-95            [-1, 256, 2, 2]         589,824
      BatchNorm2d-96            [-1, 256, 2, 2]             512
             ReLU-97            [-1, 256, 2, 2]               0
           Conv2d-98           [-1, 1024, 2, 2]         262,144
      BatchNorm2d-99           [-1, 1024, 2, 2]           2,048
            ReLU-100           [-1, 1024, 2, 2]               0
      Bottleneck-101           [-1, 1024, 2, 2]               0
          Conv2d-102            [-1, 256, 2, 2]         262,144
     BatchNorm2d-103            [-1, 256, 2, 2]             512
            ReLU-104            [-1, 256, 2, 2]               0
          Conv2d-105            [-1, 256, 2, 2]         589,824
     BatchNorm2d-106            [-1, 256, 2, 2]             512
            ReLU-107            [-1, 256, 2, 2]               0
          Conv2d-108           [-1, 1024, 2, 2]         262,144
     BatchNorm2d-109           [-1, 1024, 2, 2]           2,048
            ReLU-110           [-1, 1024, 2, 2]               0
      Bottleneck-111           [-1, 1024, 2, 2]               0
          Conv2d-112            [-1, 256, 2, 2]         262,144
     BatchNorm2d-113            [-1, 256, 2, 2]             512
            ReLU-114            [-1, 256, 2, 2]               0
          Conv2d-115            [-1, 256, 2, 2]         589,824
     BatchNorm2d-116            [-1, 256, 2, 2]             512
            ReLU-117            [-1, 256, 2, 2]               0
          Conv2d-118           [-1, 1024, 2, 2]         262,144
     BatchNorm2d-119           [-1, 1024, 2, 2]           2,048
            ReLU-120           [-1, 1024, 2, 2]               0
      Bottleneck-121           [-1, 1024, 2, 2]               0
          Conv2d-122            [-1, 256, 2, 2]         262,144
     BatchNorm2d-123            [-1, 256, 2, 2]             512
            ReLU-124            [-1, 256, 2, 2]               0
          Conv2d-125            [-1, 256, 2, 2]         589,824
     BatchNorm2d-126            [-1, 256, 2, 2]             512
            ReLU-127            [-1, 256, 2, 2]               0
          Conv2d-128           [-1, 1024, 2, 2]         262,144
     BatchNorm2d-129           [-1, 1024, 2, 2]           2,048
            ReLU-130           [-1, 1024, 2, 2]               0
      Bottleneck-131           [-1, 1024, 2, 2]               0
          Conv2d-132            [-1, 256, 2, 2]         262,144
     BatchNorm2d-133            [-1, 256, 2, 2]             512
            ReLU-134            [-1, 256, 2, 2]               0
          Conv2d-135            [-1, 256, 2, 2]         589,824
     BatchNorm2d-136            [-1, 256, 2, 2]             512
            ReLU-137            [-1, 256, 2, 2]               0
          Conv2d-138           [-1, 1024, 2, 2]         262,144
     BatchNorm2d-139           [-1, 1024, 2, 2]           2,048
            ReLU-140           [-1, 1024, 2, 2]               0
      Bottleneck-141           [-1, 1024, 2, 2]               0
          Conv2d-142            [-1, 512, 2, 2]         524,288
     BatchNorm2d-143            [-1, 512, 2, 2]           1,024
            ReLU-144            [-1, 512, 2, 2]               0
          Conv2d-145            [-1, 512, 1, 1]       2,359,296
     BatchNorm2d-146            [-1, 512, 1, 1]           1,024
            ReLU-147            [-1, 512, 1, 1]               0
          Conv2d-148           [-1, 2048, 1, 1]       1,048,576
     BatchNorm2d-149           [-1, 2048, 1, 1]           4,096
          Conv2d-150           [-1, 2048, 1, 1]       2,097,152
     BatchNorm2d-151           [-1, 2048, 1, 1]           4,096
            ReLU-152           [-1, 2048, 1, 1]               0
      Bottleneck-153           [-1, 2048, 1, 1]               0
          Conv2d-154            [-1, 512, 1, 1]       1,048,576
     BatchNorm2d-155            [-1, 512, 1, 1]           1,024
            ReLU-156            [-1, 512, 1, 1]               0
          Conv2d-157            [-1, 512, 1, 1]       2,359,296
     BatchNorm2d-158            [-1, 512, 1, 1]           1,024
            ReLU-159            [-1, 512, 1, 1]               0
          Conv2d-160           [-1, 2048, 1, 1]       1,048,576
     BatchNorm2d-161           [-1, 2048, 1, 1]           4,096
            ReLU-162           [-1, 2048, 1, 1]               0
      Bottleneck-163           [-1, 2048, 1, 1]               0
          Conv2d-164            [-1, 512, 1, 1]       1,048,576
     BatchNorm2d-165            [-1, 512, 1, 1]           1,024
            ReLU-166            [-1, 512, 1, 1]               0
          Conv2d-167            [-1, 512, 1, 1]       2,359,296
     BatchNorm2d-168            [-1, 512, 1, 1]           1,024
            ReLU-169            [-1, 512, 1, 1]               0
          Conv2d-170           [-1, 2048, 1, 1]       1,048,576
     BatchNorm2d-171           [-1, 2048, 1, 1]           4,096
            ReLU-172           [-1, 2048, 1, 1]               0
      Bottleneck-173           [-1, 2048, 1, 1]               0
AdaptiveAvgPool2d-174           [-1, 2048, 1, 1]               0
          Linear-175                 [-1, 1000]       2,049,000
          ResNet-176                 [-1, 1000]               0
     BatchNorm1d-177                 [-1, 1000]           2,000
         Dropout-178                 [-1, 1000]               0
          Linear-179                 [-1, 4096]       4,100,096
     BatchNorm1d-180                 [-1, 4096]           8,192
         Dropout-181                 [-1, 4096]               0
          Linear-182                   [-1, 10]          40,970
================================================================
Total params: 29,708,296
Trainable params: 29,708,296
Non-trainable params: 0
----------------------------------------------------------------
Input size (MB): 0.00
Forward/backward pass size (MB): 6.01
Params size (MB): 113.33
Estimated Total Size (MB): 119.34
----------------------------------------------------------------
echo: 0
…
echo: 170
loss: 0.06644735900217323
accuracy: 0.9796998420221169
echo: 171
loss: 0.0627804798475727
accuracy: 0.9801885860979463
Iteration:36500  Loss:tensor(0.0695, device='cuda:0', grad_fn=<NllLossBackward>)  Accuracy:tensor(87, device='cuda:0')
echo: 172
loss: 0.07201225458428052
accuracy: 0.9773030213270142
echo: 173
loss: 0.0648284416416245
accuracy: 0.9804477685624013
----------------------------------------------------------------
        Layer (type)               Output Shape         Param #
================================================================
            Conv2d-1            [-1, 3, 32, 32]               6
            Conv2d-2           [-1, 64, 16, 16]           9,408
       BatchNorm2d-3           [-1, 64, 16, 16]             128
              ReLU-4           [-1, 64, 16, 16]               0
         MaxPool2d-5             [-1, 64, 8, 8]               0
            Conv2d-6             [-1, 64, 8, 8]           4,096
       BatchNorm2d-7             [-1, 64, 8, 8]             128
              ReLU-8             [-1, 64, 8, 8]               0
            Conv2d-9             [-1, 64, 8, 8]          36,864
      BatchNorm2d-10             [-1, 64, 8, 8]             128
             ReLU-11             [-1, 64, 8, 8]               0
           Conv2d-12            [-1, 256, 8, 8]          16,384
      BatchNorm2d-13            [-1, 256, 8, 8]             512
           Conv2d-14            [-1, 256, 8, 8]          16,384
      BatchNorm2d-15            [-1, 256, 8, 8]             512
             ReLU-16            [-1, 256, 8, 8]               0
       Bottleneck-17            [-1, 256, 8, 8]               0
           Conv2d-18             [-1, 64, 8, 8]          16,384
      BatchNorm2d-19             [-1, 64, 8, 8]             128
             ReLU-20             [-1, 64, 8, 8]               0
           Conv2d-21             [-1, 64, 8, 8]          36,864
      BatchNorm2d-22             [-1, 64, 8, 8]             128
             ReLU-23             [-1, 64, 8, 8]               0
           Conv2d-24            [-1, 256, 8, 8]          16,384
      BatchNorm2d-25            [-1, 256, 8, 8]             512
             ReLU-26            [-1, 256, 8, 8]               0
       Bottleneck-27            [-1, 256, 8, 8]               0
           Conv2d-28             [-1, 64, 8, 8]          16,384
      BatchNorm2d-29             [-1, 64, 8, 8]             128
             ReLU-30             [-1, 64, 8, 8]               0
           Conv2d-31             [-1, 64, 8, 8]          36,864
      BatchNorm2d-32             [-1, 64, 8, 8]             128
             ReLU-33             [-1, 64, 8, 8]               0
           Conv2d-34            [-1, 256, 8, 8]          16,384
      BatchNorm2d-35            [-1, 256, 8, 8]             512
             ReLU-36            [-1, 256, 8, 8]               0
       Bottleneck-37            [-1, 256, 8, 8]               0
           Conv2d-38            [-1, 128, 8, 8]          32,768
      BatchNorm2d-39            [-1, 128, 8, 8]             256
             ReLU-40            [-1, 128, 8, 8]               0
           Conv2d-41            [-1, 128, 4, 4]         147,456
      BatchNorm2d-42            [-1, 128, 4, 4]             256
             ReLU-43            [-1, 128, 4, 4]               0
           Conv2d-44            [-1, 512, 4, 4]          65,536
      BatchNorm2d-45            [-1, 512, 4, 4]           1,024
           Conv2d-46            [-1, 512, 4, 4]         131,072
      BatchNorm2d-47            [-1, 512, 4, 4]           1,024
             ReLU-48            [-1, 512, 4, 4]               0
       Bottleneck-49            [-1, 512, 4, 4]               0
           Conv2d-50            [-1, 128, 4, 4]          65,536
      BatchNorm2d-51            [-1, 128, 4, 4]             256
             ReLU-52            [-1, 128, 4, 4]               0
           Conv2d-53            [-1, 128, 4, 4]         147,456
      BatchNorm2d-54            [-1, 128, 4, 4]             256
             ReLU-55            [-1, 128, 4, 4]               0
           Conv2d-56            [-1, 512, 4, 4]          65,536
      BatchNorm2d-57            [-1, 512, 4, 4]           1,024
             ReLU-58            [-1, 512, 4, 4]               0
       Bottleneck-59            [-1, 512, 4, 4]               0
           Conv2d-60            [-1, 128, 4, 4]          65,536
      BatchNorm2d-61            [-1, 128, 4, 4]             256
             ReLU-62            [-1, 128, 4, 4]               0
           Conv2d-63            [-1, 128, 4, 4]         147,456
      BatchNorm2d-64            [-1, 128, 4, 4]             256
             ReLU-65            [-1, 128, 4, 4]               0
           Conv2d-66            [-1, 512, 4, 4]          65,536
      BatchNorm2d-67            [-1, 512, 4, 4]           1,024
             ReLU-68            [-1, 512, 4, 4]               0
       Bottleneck-69            [-1, 512, 4, 4]               0
           Conv2d-70            [-1, 128, 4, 4]          65,536
      BatchNorm2d-71            [-1, 128, 4, 4]             256
             ReLU-72            [-1, 128, 4, 4]               0
           Conv2d-73            [-1, 128, 4, 4]         147,456
      BatchNorm2d-74            [-1, 128, 4, 4]             256
             ReLU-75            [-1, 128, 4, 4]               0
           Conv2d-76            [-1, 512, 4, 4]          65,536
      BatchNorm2d-77            [-1, 512, 4, 4]           1,024
             ReLU-78            [-1, 512, 4, 4]               0
       Bottleneck-79            [-1, 512, 4, 4]               0
           Conv2d-80            [-1, 256, 4, 4]         131,072
      BatchNorm2d-81            [-1, 256, 4, 4]             512
             ReLU-82            [-1, 256, 4, 4]               0
           Conv2d-83            [-1, 256, 2, 2]         589,824
      BatchNorm2d-84            [-1, 256, 2, 2]             512
             ReLU-85            [-1, 256, 2, 2]               0
           Conv2d-86           [-1, 1024, 2, 2]         262,144
      BatchNorm2d-87           [-1, 1024, 2, 2]           2,048
           Conv2d-88           [-1, 1024, 2, 2]         524,288
      BatchNorm2d-89           [-1, 1024, 2, 2]           2,048
             ReLU-90           [-1, 1024, 2, 2]               0
       Bottleneck-91           [-1, 1024, 2, 2]               0
           Conv2d-92            [-1, 256, 2, 2]         262,144
      BatchNorm2d-93            [-1, 256, 2, 2]             512
             ReLU-94            [-1, 256, 2, 2]               0
           Conv2d-95            [-1, 256, 2, 2]         589,824
      BatchNorm2d-96            [-1, 256, 2, 2]             512
             ReLU-97            [-1, 256, 2, 2]               0
           Conv2d-98           [-1, 1024, 2, 2]         262,144
      BatchNorm2d-99           [-1, 1024, 2, 2]           2,048
            ReLU-100           [-1, 1024, 2, 2]               0
      Bottleneck-101           [-1, 1024, 2, 2]               0
          Conv2d-102            [-1, 256, 2, 2]         262,144
     BatchNorm2d-103            [-1, 256, 2, 2]             512
            ReLU-104            [-1, 256, 2, 2]               0
          Conv2d-105            [-1, 256, 2, 2]         589,824
     BatchNorm2d-106            [-1, 256, 2, 2]             512
            ReLU-107            [-1, 256, 2, 2]               0
          Conv2d-108           [-1, 1024, 2, 2]         262,144
     BatchNorm2d-109           [-1, 1024, 2, 2]           2,048
            ReLU-110           [-1, 1024, 2, 2]               0
      Bottleneck-111           [-1, 1024, 2, 2]               0
          Conv2d-112            [-1, 256, 2, 2]         262,144
     BatchNorm2d-113            [-1, 256, 2, 2]             512
            ReLU-114            [-1, 256, 2, 2]               0
          Conv2d-115            [-1, 256, 2, 2]         589,824
     BatchNorm2d-116            [-1, 256, 2, 2]             512
            ReLU-117            [-1, 256, 2, 2]               0
          Conv2d-118           [-1, 1024, 2, 2]         262,144
     BatchNorm2d-119           [-1, 1024, 2, 2]           2,048
            ReLU-120           [-1, 1024, 2, 2]               0
      Bottleneck-121           [-1, 1024, 2, 2]               0
          Conv2d-122            [-1, 256, 2, 2]         262,144
     BatchNorm2d-123            [-1, 256, 2, 2]             512
            ReLU-124            [-1, 256, 2, 2]               0
          Conv2d-125            [-1, 256, 2, 2]         589,824
     BatchNorm2d-126            [-1, 256, 2, 2]             512
            ReLU-127            [-1, 256, 2, 2]               0
          Conv2d-128           [-1, 1024, 2, 2]         262,144
     BatchNorm2d-129           [-1, 1024, 2, 2]           2,048
            ReLU-130           [-1, 1024, 2, 2]               0
      Bottleneck-131           [-1, 1024, 2, 2]               0
          Conv2d-132            [-1, 256, 2, 2]         262,144
     BatchNorm2d-133            [-1, 256, 2, 2]             512
            ReLU-134            [-1, 256, 2, 2]               0
          Conv2d-135            [-1, 256, 2, 2]         589,824
     BatchNorm2d-136            [-1, 256, 2, 2]             512
            ReLU-137            [-1, 256, 2, 2]               0
          Conv2d-138           [-1, 1024, 2, 2]         262,144
     BatchNorm2d-139           [-1, 1024, 2, 2]           2,048
            ReLU-140           [-1, 1024, 2, 2]               0
      Bottleneck-141           [-1, 1024, 2, 2]               0
          Conv2d-142            [-1, 512, 2, 2]         524,288
     BatchNorm2d-143            [-1, 512, 2, 2]           1,024
            ReLU-144            [-1, 512, 2, 2]               0
          Conv2d-145            [-1, 512, 1, 1]       2,359,296
     BatchNorm2d-146            [-1, 512, 1, 1]           1,024
            ReLU-147            [-1, 512, 1, 1]               0
          Conv2d-148           [-1, 2048, 1, 1]       1,048,576
     BatchNorm2d-149           [-1, 2048, 1, 1]           4,096
          Conv2d-150           [-1, 2048, 1, 1]       2,097,152
     BatchNorm2d-151           [-1, 2048, 1, 1]           4,096
            ReLU-152           [-1, 2048, 1, 1]               0
      Bottleneck-153           [-1, 2048, 1, 1]               0
          Conv2d-154            [-1, 512, 1, 1]       1,048,576
     BatchNorm2d-155            [-1, 512, 1, 1]           1,024
            ReLU-156            [-1, 512, 1, 1]               0
          Conv2d-157            [-1, 512, 1, 1]       2,359,296
     BatchNorm2d-158            [-1, 512, 1, 1]           1,024
            ReLU-159            [-1, 512, 1, 1]               0
          Conv2d-160           [-1, 2048, 1, 1]       1,048,576
     BatchNorm2d-161           [-1, 2048, 1, 1]           4,096
            ReLU-162           [-1, 2048, 1, 1]               0
      Bottleneck-163           [-1, 2048, 1, 1]               0
          Conv2d-164            [-1, 512, 1, 1]       1,048,576
     BatchNorm2d-165            [-1, 512, 1, 1]           1,024
            ReLU-166            [-1, 512, 1, 1]               0
          Conv2d-167            [-1, 512, 1, 1]       2,359,296
     BatchNorm2d-168            [-1, 512, 1, 1]           1,024
            ReLU-169            [-1, 512, 1, 1]               0
          Conv2d-170           [-1, 2048, 1, 1]       1,048,576
     BatchNorm2d-171           [-1, 2048, 1, 1]           4,096
            ReLU-172           [-1, 2048, 1, 1]               0
      Bottleneck-173           [-1, 2048, 1, 1]               0
AdaptiveAvgPool2d-174           [-1, 2048, 1, 1]               0
          Linear-175                 [-1, 1000]       2,049,000
          ResNet-176                 [-1, 1000]               0
     BatchNorm1d-177                 [-1, 1000]           2,000
         Dropout-178                 [-1, 1000]               0
          Linear-179                 [-1, 4096]       4,100,096
     BatchNorm1d-180                 [-1, 4096]           8,192
         Dropout-181                 [-1, 4096]               0
          Linear-182                   [-1, 10]          40,970
================================================================
Total params: 29,708,296
Trainable params: 29,708,296
Non-trainable params: 0
----------------------------------------------------------------
Input size (MB): 0.00
Forward/backward pass size (MB): 6.01
Params size (MB): 113.33
Estimated Total Size (MB): 119.34
----------------------------------------------------------------
echo: 0
…
