----------------------------------------------------------------
        Layer (type)               Output Shape         Param #
================================================================
            Conv2d-1            [-1, 1, 32, 32]               1
            Conv2d-2           [-1, 64, 32, 32]             576
       BatchNorm2d-3           [-1, 64, 32, 32]             128
              ReLU-4           [-1, 64, 32, 32]               0
            Conv2d-5           [-1, 64, 32, 32]          36,864
       BatchNorm2d-6           [-1, 64, 32, 32]             128
              ReLU-7           [-1, 64, 32, 32]               0
            Conv2d-8           [-1, 64, 32, 32]          36,864
       BatchNorm2d-9           [-1, 64, 32, 32]             128
    ResidualBlock-10           [-1, 64, 32, 32]               0
           Conv2d-11           [-1, 64, 32, 32]          36,864
      BatchNorm2d-12           [-1, 64, 32, 32]             128
             ReLU-13           [-1, 64, 32, 32]               0
           Conv2d-14           [-1, 64, 32, 32]          36,864
      BatchNorm2d-15           [-1, 64, 32, 32]             128
    ResidualBlock-16           [-1, 64, 32, 32]               0
           Conv2d-17          [-1, 128, 16, 16]          73,728
      BatchNorm2d-18          [-1, 128, 16, 16]             256
             ReLU-19          [-1, 128, 16, 16]               0
           Conv2d-20          [-1, 128, 16, 16]         147,456
      BatchNorm2d-21          [-1, 128, 16, 16]             256
           Conv2d-22          [-1, 128, 16, 16]           8,192
      BatchNorm2d-23          [-1, 128, 16, 16]             256
    ResidualBlock-24          [-1, 128, 16, 16]               0
           Conv2d-25          [-1, 128, 16, 16]         147,456
      BatchNorm2d-26          [-1, 128, 16, 16]             256
             ReLU-27          [-1, 128, 16, 16]               0
           Conv2d-28          [-1, 128, 16, 16]         147,456
      BatchNorm2d-29          [-1, 128, 16, 16]             256
    ResidualBlock-30          [-1, 128, 16, 16]               0
           Conv2d-31            [-1, 256, 8, 8]         294,912
      BatchNorm2d-32            [-1, 256, 8, 8]             512
             ReLU-33            [-1, 256, 8, 8]               0
           Conv2d-34            [-1, 256, 8, 8]         589,824
      BatchNorm2d-35            [-1, 256, 8, 8]             512
           Conv2d-36            [-1, 256, 8, 8]          32,768
      BatchNorm2d-37            [-1, 256, 8, 8]             512
    ResidualBlock-38            [-1, 256, 8, 8]               0
           Conv2d-39            [-1, 256, 8, 8]         589,824
      BatchNorm2d-40            [-1, 256, 8, 8]             512
             ReLU-41            [-1, 256, 8, 8]               0
           Conv2d-42            [-1, 256, 8, 8]         589,824
      BatchNorm2d-43            [-1, 256, 8, 8]             512
    ResidualBlock-44            [-1, 256, 8, 8]               0
           Conv2d-45            [-1, 512, 4, 4]       1,179,648
      BatchNorm2d-46            [-1, 512, 4, 4]           1,024
             ReLU-47            [-1, 512, 4, 4]               0
           Conv2d-48            [-1, 512, 4, 4]       2,359,296
      BatchNorm2d-49            [-1, 512, 4, 4]           1,024
           Conv2d-50            [-1, 512, 4, 4]         131,072
      BatchNorm2d-51            [-1, 512, 4, 4]           1,024
    ResidualBlock-52            [-1, 512, 4, 4]               0
           Conv2d-53            [-1, 512, 4, 4]       2,359,296
      BatchNorm2d-54            [-1, 512, 4, 4]           1,024
             ReLU-55            [-1, 512, 4, 4]               0
           Conv2d-56            [-1, 512, 4, 4]       2,359,296
      BatchNorm2d-57            [-1, 512, 4, 4]           1,024
    ResidualBlock-58            [-1, 512, 4, 4]               0
           Linear-59                 [-1, 4096]       2,101,248
      BatchNorm1d-60                 [-1, 4096]           8,192
          Dropout-61                 [-1, 4096]               0
           Linear-62                  [-1, 256]       1,048,832
      BatchNorm1d-63                  [-1, 256]             512
          Dropout-64                  [-1, 256]               0
           Linear-65                   [-1, 10]           2,570
================================================================
Total params: 14,329,035
Trainable params: 14,329,035
Non-trainable params: 0
----------------------------------------------------------------
Input size (MB): 0.00
Forward/backward pass size (MB): 13.73
Params size (MB): 54.66
Estimated Total Size (MB): 68.40
----------------------------------------------------------------
Iteration:500  Loss:tensor(1.0249, device='cuda:0', grad_fn=<NllLossBackward>)  Accuracy:tensor(75, device='cuda:0')
Iteration:1000  Loss:tensor(0.8186, device='cuda:0', grad_fn=<NllLossBackward>)  Accuracy:tensor(80, device='cuda:0')
----------------------------------------------------------------
        Layer (type)               Output Shape         Param #
================================================================
            Conv2d-1            [-1, 1, 32, 32]               1
            Conv2d-2           [-1, 64, 32, 32]             576
       BatchNorm2d-3           [-1, 64, 32, 32]             128
              ReLU-4           [-1, 64, 32, 32]               0
            Conv2d-5           [-1, 64, 32, 32]          36,864
       BatchNorm2d-6           [-1, 64, 32, 32]             128
              ReLU-7           [-1, 64, 32, 32]               0
            Conv2d-8           [-1, 64, 32, 32]          36,864
       BatchNorm2d-9           [-1, 64, 32, 32]             128
    ResidualBlock-10           [-1, 64, 32, 32]               0
           Conv2d-11           [-1, 64, 32, 32]          36,864
      BatchNorm2d-12           [-1, 64, 32, 32]             128
             ReLU-13           [-1, 64, 32, 32]               0
           Conv2d-14           [-1, 64, 32, 32]          36,864
      BatchNorm2d-15           [-1, 64, 32, 32]             128
    ResidualBlock-16           [-1, 64, 32, 32]               0
           Conv2d-17          [-1, 128, 16, 16]          73,728
      BatchNorm2d-18          [-1, 128, 16, 16]             256
             ReLU-19          [-1, 128, 16, 16]               0
           Conv2d-20          [-1, 128, 16, 16]         147,456
      BatchNorm2d-21          [-1, 128, 16, 16]             256
           Conv2d-22          [-1, 128, 16, 16]           8,192
      BatchNorm2d-23          [-1, 128, 16, 16]             256
    ResidualBlock-24          [-1, 128, 16, 16]               0
           Conv2d-25          [-1, 128, 16, 16]         147,456
      BatchNorm2d-26          [-1, 128, 16, 16]             256
             ReLU-27          [-1, 128, 16, 16]               0
           Conv2d-28          [-1, 128, 16, 16]         147,456
      BatchNorm2d-29          [-1, 128, 16, 16]             256
    ResidualBlock-30          [-1, 128, 16, 16]               0
           Conv2d-31            [-1, 256, 8, 8]         294,912
      BatchNorm2d-32            [-1, 256, 8, 8]             512
             ReLU-33            [-1, 256, 8, 8]               0
           Conv2d-34            [-1, 256, 8, 8]         589,824
      BatchNorm2d-35            [-1, 256, 8, 8]             512
           Conv2d-36            [-1, 256, 8, 8]          32,768
      BatchNorm2d-37            [-1, 256, 8, 8]             512
    ResidualBlock-38            [-1, 256, 8, 8]               0
           Conv2d-39            [-1, 256, 8, 8]         589,824
      BatchNorm2d-40            [-1, 256, 8, 8]             512
             ReLU-41            [-1, 256, 8, 8]               0
           Conv2d-42            [-1, 256, 8, 8]         589,824
      BatchNorm2d-43            [-1, 256, 8, 8]             512
    ResidualBlock-44            [-1, 256, 8, 8]               0
           Conv2d-45            [-1, 512, 4, 4]       1,179,648
      BatchNorm2d-46            [-1, 512, 4, 4]           1,024
             ReLU-47            [-1, 512, 4, 4]               0
           Conv2d-48            [-1, 512, 4, 4]       2,359,296
      BatchNorm2d-49            [-1, 512, 4, 4]           1,024
           Conv2d-50            [-1, 512, 4, 4]         131,072
      BatchNorm2d-51            [-1, 512, 4, 4]           1,024
    ResidualBlock-52            [-1, 512, 4, 4]               0
           Conv2d-53            [-1, 512, 4, 4]       2,359,296
      BatchNorm2d-54            [-1, 512, 4, 4]           1,024
             ReLU-55            [-1, 512, 4, 4]               0
           Conv2d-56            [-1, 512, 4, 4]       2,359,296
      BatchNorm2d-57            [-1, 512, 4, 4]           1,024
    ResidualBlock-58            [-1, 512, 4, 4]               0
           Conv2d-59           [-1, 1024, 4, 4]       4,718,592
      BatchNorm2d-60           [-1, 1024, 4, 4]           2,048
             ReLU-61           [-1, 1024, 4, 4]               0
           Conv2d-62           [-1, 1024, 4, 4]       9,437,184
      BatchNorm2d-63           [-1, 1024, 4, 4]           2,048
           Conv2d-64           [-1, 1024, 4, 4]         524,288
      BatchNorm2d-65           [-1, 1024, 4, 4]           2,048
    ResidualBlock-66           [-1, 1024, 4, 4]               0
           Conv2d-67           [-1, 1024, 4, 4]       9,437,184
      BatchNorm2d-68           [-1, 1024, 4, 4]           2,048
             ReLU-69           [-1, 1024, 4, 4]               0
           Conv2d-70           [-1, 1024, 4, 4]       9,437,184
      BatchNorm2d-71           [-1, 1024, 4, 4]           2,048
    ResidualBlock-72           [-1, 1024, 4, 4]               0
           Linear-73                 [-1, 4096]       4,198,400
      BatchNorm1d-74                 [-1, 4096]           8,192
          Dropout-75                 [-1, 4096]               0
           Linear-76                  [-1, 256]       1,048,832
      BatchNorm1d-77                  [-1, 256]             512
          Dropout-78                  [-1, 256]               0
           Linear-79                   [-1, 10]           2,570
================================================================
Total params: 49,990,859
Trainable params: 49,990,859
Non-trainable params: 0
----------------------------------------------------------------
Input size (MB): 0.00
Forward/backward pass size (MB): 15.48
Params size (MB): 190.70
Estimated Total Size (MB): 206.19
----------------------------------------------------------------
Iteration:500  Loss:tensor(1.0261, device='cuda:0', grad_fn=<NllLossBackward>)  Accuracy:tensor(78, device='cuda:0')
----------------------------------------------------------------
        Layer (type)               Output Shape         Param #
================================================================
            Conv2d-1            [-1, 1, 32, 32]               1
            Conv2d-2           [-1, 64, 32, 32]             576
       BatchNorm2d-3           [-1, 64, 32, 32]             128
              ReLU-4           [-1, 64, 32, 32]               0
            Conv2d-5           [-1, 64, 32, 32]          36,864
       BatchNorm2d-6           [-1, 64, 32, 32]             128
              ReLU-7           [-1, 64, 32, 32]               0
            Conv2d-8           [-1, 64, 32, 32]          36,864
       BatchNorm2d-9           [-1, 64, 32, 32]             128
    ResidualBlock-10           [-1, 64, 32, 32]               0
           Conv2d-11           [-1, 64, 32, 32]          36,864
      BatchNorm2d-12           [-1, 64, 32, 32]             128
             ReLU-13           [-1, 64, 32, 32]               0
           Conv2d-14           [-1, 64, 32, 32]          36,864
      BatchNorm2d-15           [-1, 64, 32, 32]             128
    ResidualBlock-16           [-1, 64, 32, 32]               0
           Conv2d-17          [-1, 128, 16, 16]          73,728
      BatchNorm2d-18          [-1, 128, 16, 16]             256
             ReLU-19          [-1, 128, 16, 16]               0
           Conv2d-20          [-1, 128, 16, 16]         147,456
      BatchNorm2d-21          [-1, 128, 16, 16]             256
           Conv2d-22          [-1, 128, 16, 16]           8,192
      BatchNorm2d-23          [-1, 128, 16, 16]             256
    ResidualBlock-24          [-1, 128, 16, 16]               0
           Conv2d-25          [-1, 128, 16, 16]         147,456
      BatchNorm2d-26          [-1, 128, 16, 16]             256
             ReLU-27          [-1, 128, 16, 16]               0
           Conv2d-28          [-1, 128, 16, 16]         147,456
      BatchNorm2d-29          [-1, 128, 16, 16]             256
    ResidualBlock-30          [-1, 128, 16, 16]               0
           Conv2d-31            [-1, 256, 8, 8]         294,912
      BatchNorm2d-32            [-1, 256, 8, 8]             512
             ReLU-33            [-1, 256, 8, 8]               0
           Conv2d-34            [-1, 256, 8, 8]         589,824
      BatchNorm2d-35            [-1, 256, 8, 8]             512
           Conv2d-36            [-1, 256, 8, 8]          32,768
      BatchNorm2d-37            [-1, 256, 8, 8]             512
    ResidualBlock-38            [-1, 256, 8, 8]               0
           Conv2d-39            [-1, 256, 8, 8]         589,824
      BatchNorm2d-40            [-1, 256, 8, 8]             512
             ReLU-41            [-1, 256, 8, 8]               0
           Conv2d-42            [-1, 256, 8, 8]         589,824
      BatchNorm2d-43            [-1, 256, 8, 8]             512
    ResidualBlock-44            [-1, 256, 8, 8]               0
           Conv2d-45            [-1, 512, 4, 4]       1,179,648
      BatchNorm2d-46            [-1, 512, 4, 4]           1,024
             ReLU-47            [-1, 512, 4, 4]               0
           Conv2d-48            [-1, 512, 4, 4]       2,359,296
      BatchNorm2d-49            [-1, 512, 4, 4]           1,024
           Conv2d-50            [-1, 512, 4, 4]         131,072
      BatchNorm2d-51            [-1, 512, 4, 4]           1,024
    ResidualBlock-52            [-1, 512, 4, 4]               0
           Conv2d-53            [-1, 512, 4, 4]       2,359,296
      BatchNorm2d-54            [-1, 512, 4, 4]           1,024
             ReLU-55            [-1, 512, 4, 4]               0
           Conv2d-56            [-1, 512, 4, 4]       2,359,296
      BatchNorm2d-57            [-1, 512, 4, 4]           1,024
    ResidualBlock-58            [-1, 512, 4, 4]               0
           Conv2d-59           [-1, 1024, 4, 4]       4,718,592
      BatchNorm2d-60           [-1, 1024, 4, 4]           2,048
             ReLU-61           [-1, 1024, 4, 4]               0
           Conv2d-62           [-1, 1024, 4, 4]       9,437,184
      BatchNorm2d-63           [-1, 1024, 4, 4]           2,048
           Conv2d-64           [-1, 1024, 4, 4]         524,288
      BatchNorm2d-65           [-1, 1024, 4, 4]           2,048
    ResidualBlock-66           [-1, 1024, 4, 4]               0
           Conv2d-67           [-1, 1024, 4, 4]       9,437,184
      BatchNorm2d-68           [-1, 1024, 4, 4]           2,048
             ReLU-69           [-1, 1024, 4, 4]               0
           Conv2d-70           [-1, 1024, 4, 4]       9,437,184
      BatchNorm2d-71           [-1, 1024, 4, 4]           2,048
    ResidualBlock-72           [-1, 1024, 4, 4]               0
           Linear-73                 [-1, 4096]       4,198,400
      BatchNorm1d-74                 [-1, 4096]           8,192
          Dropout-75                 [-1, 4096]               0
           Linear-76                  [-1, 256]       1,048,832
      BatchNorm1d-77                  [-1, 256]             512
          Dropout-78                  [-1, 256]               0
           Linear-79                   [-1, 10]           2,570
================================================================
Total params: 49,990,859
Trainable params: 49,990,859
Non-trainable params: 0
----------------------------------------------------------------
Input size (MB): 0.00
Forward/backward pass size (MB): 15.48
Params size (MB): 190.70
Estimated Total Size (MB): 206.19
----------------------------------------------------------------
Iteration:500  Loss:tensor(0.7023, device='cuda:0', grad_fn=<NllLossBackward>)  Accuracy:tensor(82, device='cuda:0')
…
Iteration:106000  Loss:tensor(0.0015, device='cuda:0', grad_fn=<NllLossBackward>)  Accuracy:tensor(89, device='cuda:0')
echo: 83
loss: 0.0015544589407709656
accuracy: 1.0
Iteration:106500  Loss:tensor(0.0012, device='cuda:0', grad_fn=<NllLossBackward>)  Accuracy:tensor(89, device='cuda:0')
Iteration:107000  Loss:tensor(0.0016, device='cuda:0', grad_fn=<NllLossBackward>)  Accuracy:tensor(89, device='cuda:0')
----------------------------------------------------------------
        Layer (type)               Output Shape         Param #
================================================================
            Conv2d-1            [-1, 1, 32, 32]               1
            Conv2d-2           [-1, 64, 32, 32]             576
       BatchNorm2d-3           [-1, 64, 32, 32]             128
              ReLU-4           [-1, 64, 32, 32]               0
            Conv2d-5           [-1, 64, 32, 32]          36,864
       BatchNorm2d-6           [-1, 64, 32, 32]             128
              ReLU-7           [-1, 64, 32, 32]               0
            Conv2d-8           [-1, 64, 32, 32]          36,864
       BatchNorm2d-9           [-1, 64, 32, 32]             128
    ResidualBlock-10           [-1, 64, 32, 32]               0
           Conv2d-11           [-1, 64, 32, 32]          36,864
      BatchNorm2d-12           [-1, 64, 32, 32]             128
             ReLU-13           [-1, 64, 32, 32]               0
           Conv2d-14           [-1, 64, 32, 32]          36,864
      BatchNorm2d-15           [-1, 64, 32, 32]             128
    ResidualBlock-16           [-1, 64, 32, 32]               0
           Conv2d-17          [-1, 128, 16, 16]          73,728
      BatchNorm2d-18          [-1, 128, 16, 16]             256
             ReLU-19          [-1, 128, 16, 16]               0
           Conv2d-20          [-1, 128, 16, 16]         147,456
      BatchNorm2d-21          [-1, 128, 16, 16]             256
           Conv2d-22          [-1, 128, 16, 16]           8,192
      BatchNorm2d-23          [-1, 128, 16, 16]             256
    ResidualBlock-24          [-1, 128, 16, 16]               0
           Conv2d-25          [-1, 128, 16, 16]         147,456
      BatchNorm2d-26          [-1, 128, 16, 16]             256
             ReLU-27          [-1, 128, 16, 16]               0
           Conv2d-28          [-1, 128, 16, 16]         147,456
      BatchNorm2d-29          [-1, 128, 16, 16]             256
    ResidualBlock-30          [-1, 128, 16, 16]               0
           Conv2d-31            [-1, 256, 8, 8]         294,912
      BatchNorm2d-32            [-1, 256, 8, 8]             512
             ReLU-33            [-1, 256, 8, 8]               0
           Conv2d-34            [-1, 256, 8, 8]         589,824
      BatchNorm2d-35            [-1, 256, 8, 8]             512
           Conv2d-36            [-1, 256, 8, 8]          32,768
      BatchNorm2d-37            [-1, 256, 8, 8]             512
    ResidualBlock-38            [-1, 256, 8, 8]               0
           Conv2d-39            [-1, 256, 8, 8]         589,824
      BatchNorm2d-40            [-1, 256, 8, 8]             512
             ReLU-41            [-1, 256, 8, 8]               0
           Conv2d-42            [-1, 256, 8, 8]         589,824
      BatchNorm2d-43            [-1, 256, 8, 8]             512
    ResidualBlock-44            [-1, 256, 8, 8]               0
           Linear-45                 [-1, 4096]       4,198,400
      BatchNorm1d-46                 [-1, 4096]           8,192
          Dropout-47                 [-1, 4096]               0
           Linear-48                   [-1, 10]          40,970
================================================================
Total params: 7,021,515
Trainable params: 7,021,515
Non-trainable params: 0
----------------------------------------------------------------
Input size (MB): 0.00
Forward/backward pass size (MB): 12.85
Params size (MB): 26.78
Estimated Total Size (MB): 39.64
----------------------------------------------------------------
Iteration:500  Loss:tensor(1.0238, device='cuda:0', grad_fn=<NllLossBackward>)  Accuracy:tensor(60, device='cuda:0')
…
Iteration:52000  Loss:tensor(0.0028, device='cuda:0', grad_fn=<NllLossBackward>)  Accuracy:tensor(90, device='cuda:0')
Iteration:52500  Loss:tensor(0.0018, device='cuda:0', grad_fn=<NllLossBackward>)  Accuracy:tensor(90, device='cuda:0')
Iteration:53000  Loss:tensor(0.0018, device='cuda:0', grad_fn=<NllLossBackward>)  Accuracy:tensor(90, device='cuda:0')
echo: 41
loss: 0.0016949230028109664
accuracy: 1.0
----------------------------------------------------------------
        Layer (type)               Output Shape         Param #
================================================================
            Conv2d-1            [-1, 1, 32, 32]               1
            Conv2d-2           [-1, 64, 32, 32]             576
       BatchNorm2d-3           [-1, 64, 32, 32]             128
              ReLU-4           [-1, 64, 32, 32]               0
            Conv2d-5           [-1, 64, 32, 32]          36,864
       BatchNorm2d-6           [-1, 64, 32, 32]             128
              ReLU-7           [-1, 64, 32, 32]               0
            Conv2d-8           [-1, 64, 32, 32]          36,864
       BatchNorm2d-9           [-1, 64, 32, 32]             128
    ResidualBlock-10           [-1, 64, 32, 32]               0
           Conv2d-11           [-1, 64, 32, 32]          36,864
      BatchNorm2d-12           [-1, 64, 32, 32]             128
             ReLU-13           [-1, 64, 32, 32]               0
           Conv2d-14           [-1, 64, 32, 32]          36,864
      BatchNorm2d-15           [-1, 64, 32, 32]             128
    ResidualBlock-16           [-1, 64, 32, 32]               0
           Conv2d-17          [-1, 128, 16, 16]          73,728
      BatchNorm2d-18          [-1, 128, 16, 16]             256
             ReLU-19          [-1, 128, 16, 16]               0
           Conv2d-20          [-1, 128, 16, 16]         147,456
      BatchNorm2d-21          [-1, 128, 16, 16]             256
           Conv2d-22          [-1, 128, 16, 16]           8,192
      BatchNorm2d-23          [-1, 128, 16, 16]             256
    ResidualBlock-24          [-1, 128, 16, 16]               0
           Conv2d-25          [-1, 128, 16, 16]         147,456
      BatchNorm2d-26          [-1, 128, 16, 16]             256
             ReLU-27          [-1, 128, 16, 16]               0
           Conv2d-28          [-1, 128, 16, 16]         147,456
      BatchNorm2d-29          [-1, 128, 16, 16]             256
    ResidualBlock-30          [-1, 128, 16, 16]               0
           Conv2d-31            [-1, 256, 8, 8]         294,912
      BatchNorm2d-32            [-1, 256, 8, 8]             512
             ReLU-33            [-1, 256, 8, 8]               0
           Conv2d-34            [-1, 256, 8, 8]         589,824
      BatchNorm2d-35            [-1, 256, 8, 8]             512
           Conv2d-36            [-1, 256, 8, 8]          32,768
      BatchNorm2d-37            [-1, 256, 8, 8]             512
    ResidualBlock-38            [-1, 256, 8, 8]               0
           Conv2d-39            [-1, 256, 8, 8]         589,824
      BatchNorm2d-40            [-1, 256, 8, 8]             512
             ReLU-41            [-1, 256, 8, 8]               0
           Conv2d-42            [-1, 256, 8, 8]         589,824
      BatchNorm2d-43            [-1, 256, 8, 8]             512
    ResidualBlock-44            [-1, 256, 8, 8]               0
           Conv2d-45            [-1, 512, 4, 4]       1,179,648
      BatchNorm2d-46            [-1, 512, 4, 4]           1,024
             ReLU-47            [-1, 512, 4, 4]               0
           Conv2d-48            [-1, 512, 4, 4]       2,359,296
      BatchNorm2d-49            [-1, 512, 4, 4]           1,024
           Conv2d-50            [-1, 512, 4, 4]         131,072
      BatchNorm2d-51            [-1, 512, 4, 4]           1,024
    ResidualBlock-52            [-1, 512, 4, 4]               0
           Conv2d-53            [-1, 512, 4, 4]       2,359,296
      BatchNorm2d-54            [-1, 512, 4, 4]           1,024
             ReLU-55            [-1, 512, 4, 4]               0
           Conv2d-56            [-1, 512, 4, 4]       2,359,296
      BatchNorm2d-57            [-1, 512, 4, 4]           1,024
    ResidualBlock-58            [-1, 512, 4, 4]               0
           Linear-59                 [-1, 4096]       2,101,248
      BatchNorm1d-60                 [-1, 4096]           8,192
          Dropout-61                 [-1, 4096]               0
           Linear-62                  [-1, 256]       1,048,832
      BatchNorm1d-63                  [-1, 256]             512
          Dropout-64                  [-1, 256]               0
           Linear-65                   [-1, 10]           2,570
================================================================
Total params: 14,329,035
Trainable params: 14,329,035
Non-trainable params: 0
----------------------------------------------------------------
Input size (MB): 0.00
Forward/backward pass size (MB): 13.73
Params size (MB): 54.66
Estimated Total Size (MB): 68.40
----------------------------------------------------------------
----------------------------------------------------------------
        Layer (type)               Output Shape         Param #
================================================================
            Conv2d-1            [-1, 1, 32, 32]               1
            Conv2d-2           [-1, 64, 32, 32]             576
       BatchNorm2d-3           [-1, 64, 32, 32]             128
              ReLU-4           [-1, 64, 32, 32]               0
            Conv2d-5           [-1, 64, 32, 32]          36,864
       BatchNorm2d-6           [-1, 64, 32, 32]             128
              ReLU-7           [-1, 64, 32, 32]               0
            Conv2d-8           [-1, 64, 32, 32]          36,864
       BatchNorm2d-9           [-1, 64, 32, 32]             128
    ResidualBlock-10           [-1, 64, 32, 32]               0
           Conv2d-11           [-1, 64, 32, 32]          36,864
      BatchNorm2d-12           [-1, 64, 32, 32]             128
             ReLU-13           [-1, 64, 32, 32]               0
           Conv2d-14           [-1, 64, 32, 32]          36,864
      BatchNorm2d-15           [-1, 64, 32, 32]             128
    ResidualBlock-16           [-1, 64, 32, 32]               0
           Conv2d-17          [-1, 128, 16, 16]          73,728
      BatchNorm2d-18          [-1, 128, 16, 16]             256
             ReLU-19          [-1, 128, 16, 16]               0
           Conv2d-20          [-1, 128, 16, 16]         147,456
      BatchNorm2d-21          [-1, 128, 16, 16]             256
           Conv2d-22          [-1, 128, 16, 16]           8,192
      BatchNorm2d-23          [-1, 128, 16, 16]             256
    ResidualBlock-24          [-1, 128, 16, 16]               0
           Conv2d-25          [-1, 128, 16, 16]         147,456
      BatchNorm2d-26          [-1, 128, 16, 16]             256
             ReLU-27          [-1, 128, 16, 16]               0
           Conv2d-28          [-1, 128, 16, 16]         147,456
      BatchNorm2d-29          [-1, 128, 16, 16]             256
    ResidualBlock-30          [-1, 128, 16, 16]               0
           Conv2d-31            [-1, 256, 8, 8]         294,912
      BatchNorm2d-32            [-1, 256, 8, 8]             512
             ReLU-33            [-1, 256, 8, 8]               0
           Conv2d-34            [-1, 256, 8, 8]         589,824
      BatchNorm2d-35            [-1, 256, 8, 8]             512
           Conv2d-36            [-1, 256, 8, 8]          32,768
      BatchNorm2d-37            [-1, 256, 8, 8]             512
    ResidualBlock-38            [-1, 256, 8, 8]               0
           Conv2d-39            [-1, 256, 8, 8]         589,824
      BatchNorm2d-40            [-1, 256, 8, 8]             512
             ReLU-41            [-1, 256, 8, 8]               0
           Conv2d-42            [-1, 256, 8, 8]         589,824
      BatchNorm2d-43            [-1, 256, 8, 8]             512
    ResidualBlock-44            [-1, 256, 8, 8]               0
           Conv2d-45            [-1, 512, 4, 4]       1,179,648
      BatchNorm2d-46            [-1, 512, 4, 4]           1,024
             ReLU-47            [-1, 512, 4, 4]               0
           Conv2d-48            [-1, 512, 4, 4]       2,359,296
      BatchNorm2d-49            [-1, 512, 4, 4]           1,024
           Conv2d-50            [-1, 512, 4, 4]         131,072
      BatchNorm2d-51            [-1, 512, 4, 4]           1,024
    ResidualBlock-52            [-1, 512, 4, 4]               0
           Conv2d-53            [-1, 512, 4, 4]       2,359,296
      BatchNorm2d-54            [-1, 512, 4, 4]           1,024
             ReLU-55            [-1, 512, 4, 4]               0
           Conv2d-56            [-1, 512, 4, 4]       2,359,296
      BatchNorm2d-57            [-1, 512, 4, 4]           1,024
    ResidualBlock-58            [-1, 512, 4, 4]               0
           Linear-59                 [-1, 4096]       2,101,248
      BatchNorm1d-60                 [-1, 4096]           8,192
          Dropout-61                 [-1, 4096]               0
           Linear-62                  [-1, 256]       1,048,832
      BatchNorm1d-63                  [-1, 256]             512
          Dropout-64                  [-1, 256]               0
           Linear-65                   [-1, 10]           2,570
================================================================
Total params: 14,329,035
Trainable params: 14,329,035
Non-trainable params: 0
----------------------------------------------------------------
Input size (MB): 0.00
Forward/backward pass size (MB): 13.73
Params size (MB): 54.66
Estimated Total Size (MB): 68.40
----------------------------------------------------------------
----------------------------------------------------------------
        Layer (type)               Output Shape         Param #
================================================================
            Conv2d-1            [-1, 1, 32, 32]               1
            Conv2d-2           [-1, 64, 32, 32]             576
       BatchNorm2d-3           [-1, 64, 32, 32]             128
              ReLU-4           [-1, 64, 32, 32]               0
            Conv2d-5           [-1, 64, 32, 32]          36,864
       BatchNorm2d-6           [-1, 64, 32, 32]             128
              ReLU-7           [-1, 64, 32, 32]               0
            Conv2d-8           [-1, 64, 32, 32]          36,864
       BatchNorm2d-9           [-1, 64, 32, 32]             128
    ResidualBlock-10           [-1, 64, 32, 32]               0
           Conv2d-11           [-1, 64, 32, 32]          36,864
      BatchNorm2d-12           [-1, 64, 32, 32]             128
             ReLU-13           [-1, 64, 32, 32]               0
           Conv2d-14           [-1, 64, 32, 32]          36,864
      BatchNorm2d-15           [-1, 64, 32, 32]             128
    ResidualBlock-16           [-1, 64, 32, 32]               0
           Conv2d-17          [-1, 128, 16, 16]          73,728
      BatchNorm2d-18          [-1, 128, 16, 16]             256
             ReLU-19          [-1, 128, 16, 16]               0
           Conv2d-20          [-1, 128, 16, 16]         147,456
      BatchNorm2d-21          [-1, 128, 16, 16]             256
           Conv2d-22          [-1, 128, 16, 16]           8,192
      BatchNorm2d-23          [-1, 128, 16, 16]             256
    ResidualBlock-24          [-1, 128, 16, 16]               0
           Conv2d-25          [-1, 128, 16, 16]         147,456
      BatchNorm2d-26          [-1, 128, 16, 16]             256
             ReLU-27          [-1, 128, 16, 16]               0
           Conv2d-28          [-1, 128, 16, 16]         147,456
      BatchNorm2d-29          [-1, 128, 16, 16]             256
    ResidualBlock-30          [-1, 128, 16, 16]               0
           Conv2d-31            [-1, 256, 8, 8]         294,912
      BatchNorm2d-32            [-1, 256, 8, 8]             512
             ReLU-33            [-1, 256, 8, 8]               0
           Conv2d-34            [-1, 256, 8, 8]         589,824
      BatchNorm2d-35            [-1, 256, 8, 8]             512
           Conv2d-36            [-1, 256, 8, 8]          32,768
      BatchNorm2d-37            [-1, 256, 8, 8]             512
    ResidualBlock-38            [-1, 256, 8, 8]               0
           Conv2d-39            [-1, 256, 8, 8]         589,824
      BatchNorm2d-40            [-1, 256, 8, 8]             512
             ReLU-41            [-1, 256, 8, 8]               0
           Conv2d-42            [-1, 256, 8, 8]         589,824
      BatchNorm2d-43            [-1, 256, 8, 8]             512
    ResidualBlock-44            [-1, 256, 8, 8]               0
           Conv2d-45            [-1, 512, 4, 4]       1,179,648
      BatchNorm2d-46            [-1, 512, 4, 4]           1,024
             ReLU-47            [-1, 512, 4, 4]               0
           Conv2d-48            [-1, 512, 4, 4]       2,359,296
      BatchNorm2d-49            [-1, 512, 4, 4]           1,024
           Conv2d-50            [-1, 512, 4, 4]         131,072
      BatchNorm2d-51            [-1, 512, 4, 4]           1,024
    ResidualBlock-52            [-1, 512, 4, 4]               0
           Conv2d-53            [-1, 512, 4, 4]       2,359,296
      BatchNorm2d-54            [-1, 512, 4, 4]           1,024
             ReLU-55            [-1, 512, 4, 4]               0
           Conv2d-56            [-1, 512, 4, 4]       2,359,296
      BatchNorm2d-57            [-1, 512, 4, 4]           1,024
    ResidualBlock-58            [-1, 512, 4, 4]               0
           Linear-59                 [-1, 4096]       2,101,248
      BatchNorm1d-60                 [-1, 4096]           8,192
          Dropout-61                 [-1, 4096]               0
           Linear-62                  [-1, 256]       1,048,832
      BatchNorm1d-63                  [-1, 256]             512
          Dropout-64                  [-1, 256]               0
           Linear-65                   [-1, 10]           2,570
================================================================
Total params: 14,329,035
Trainable params: 14,329,035
Non-trainable params: 0
----------------------------------------------------------------
Input size (MB): 0.00
Forward/backward pass size (MB): 13.73
Params size (MB): 54.66
Estimated Total Size (MB): 68.40
----------------------------------------------------------------
----------------------------------------------------------------
        Layer (type)               Output Shape         Param #
================================================================
            Conv2d-1            [-1, 1, 32, 32]               1
            Conv2d-2           [-1, 64, 32, 32]             576
       BatchNorm2d-3           [-1, 64, 32, 32]             128
              ReLU-4           [-1, 64, 32, 32]               0
            Conv2d-5           [-1, 64, 32, 32]          36,864
       BatchNorm2d-6           [-1, 64, 32, 32]             128
              ReLU-7           [-1, 64, 32, 32]               0
            Conv2d-8           [-1, 64, 32, 32]          36,864
       BatchNorm2d-9           [-1, 64, 32, 32]             128
    ResidualBlock-10           [-1, 64, 32, 32]               0
           Conv2d-11           [-1, 64, 32, 32]          36,864
      BatchNorm2d-12           [-1, 64, 32, 32]             128
             ReLU-13           [-1, 64, 32, 32]               0
           Conv2d-14           [-1, 64, 32, 32]          36,864
      BatchNorm2d-15           [-1, 64, 32, 32]             128
    ResidualBlock-16           [-1, 64, 32, 32]               0
           Conv2d-17          [-1, 128, 16, 16]          73,728
      BatchNorm2d-18          [-1, 128, 16, 16]             256
             ReLU-19          [-1, 128, 16, 16]               0
           Conv2d-20          [-1, 128, 16, 16]         147,456
      BatchNorm2d-21          [-1, 128, 16, 16]             256
           Conv2d-22          [-1, 128, 16, 16]           8,192
      BatchNorm2d-23          [-1, 128, 16, 16]             256
    ResidualBlock-24          [-1, 128, 16, 16]               0
           Conv2d-25          [-1, 128, 16, 16]         147,456
      BatchNorm2d-26          [-1, 128, 16, 16]             256
             ReLU-27          [-1, 128, 16, 16]               0
           Conv2d-28          [-1, 128, 16, 16]         147,456
      BatchNorm2d-29          [-1, 128, 16, 16]             256
    ResidualBlock-30          [-1, 128, 16, 16]               0
           Conv2d-31            [-1, 256, 8, 8]         294,912
      BatchNorm2d-32            [-1, 256, 8, 8]             512
             ReLU-33            [-1, 256, 8, 8]               0
           Conv2d-34            [-1, 256, 8, 8]         589,824
      BatchNorm2d-35            [-1, 256, 8, 8]             512
           Conv2d-36            [-1, 256, 8, 8]          32,768
      BatchNorm2d-37            [-1, 256, 8, 8]             512
    ResidualBlock-38            [-1, 256, 8, 8]               0
           Conv2d-39            [-1, 256, 8, 8]         589,824
      BatchNorm2d-40            [-1, 256, 8, 8]             512
             ReLU-41            [-1, 256, 8, 8]               0
           Conv2d-42            [-1, 256, 8, 8]         589,824
      BatchNorm2d-43            [-1, 256, 8, 8]             512
    ResidualBlock-44            [-1, 256, 8, 8]               0
           Conv2d-45            [-1, 512, 4, 4]       1,179,648
      BatchNorm2d-46            [-1, 512, 4, 4]           1,024
             ReLU-47            [-1, 512, 4, 4]               0
           Conv2d-48            [-1, 512, 4, 4]       2,359,296
      BatchNorm2d-49            [-1, 512, 4, 4]           1,024
           Conv2d-50            [-1, 512, 4, 4]         131,072
      BatchNorm2d-51            [-1, 512, 4, 4]           1,024
    ResidualBlock-52            [-1, 512, 4, 4]               0
           Conv2d-53            [-1, 512, 4, 4]       2,359,296
      BatchNorm2d-54            [-1, 512, 4, 4]           1,024
             ReLU-55            [-1, 512, 4, 4]               0
           Conv2d-56            [-1, 512, 4, 4]       2,359,296
      BatchNorm2d-57            [-1, 512, 4, 4]           1,024
    ResidualBlock-58            [-1, 512, 4, 4]               0
           Linear-59                 [-1, 4096]       2,101,248
      BatchNorm1d-60                 [-1, 4096]           8,192
          Dropout-61                 [-1, 4096]               0
           Linear-62                  [-1, 256]       1,048,832
      BatchNorm1d-63                  [-1, 256]             512
          Dropout-64                  [-1, 256]               0
           Linear-65                   [-1, 10]           2,570
================================================================
Total params: 14,329,035
Trainable params: 14,329,035
Non-trainable params: 0
----------------------------------------------------------------
Input size (MB): 0.00
Forward/backward pass size (MB): 13.73
Params size (MB): 54.66
Estimated Total Size (MB): 68.40
----------------------------------------------------------------
----------------------------------------------------------------
        Layer (type)               Output Shape         Param #
================================================================
            Conv2d-1            [-1, 1, 32, 32]               1
            Conv2d-2           [-1, 64, 32, 32]             576
       BatchNorm2d-3           [-1, 64, 32, 32]             128
              ReLU-4           [-1, 64, 32, 32]               0
            Conv2d-5           [-1, 64, 32, 32]          36,864
       BatchNorm2d-6           [-1, 64, 32, 32]             128
              ReLU-7           [-1, 64, 32, 32]               0
            Conv2d-8           [-1, 64, 32, 32]          36,864
       BatchNorm2d-9           [-1, 64, 32, 32]             128
    ResidualBlock-10           [-1, 64, 32, 32]               0
           Conv2d-11           [-1, 64, 32, 32]          36,864
      BatchNorm2d-12           [-1, 64, 32, 32]             128
             ReLU-13           [-1, 64, 32, 32]               0
           Conv2d-14           [-1, 64, 32, 32]          36,864
      BatchNorm2d-15           [-1, 64, 32, 32]             128
    ResidualBlock-16           [-1, 64, 32, 32]               0
           Conv2d-17          [-1, 128, 16, 16]          73,728
      BatchNorm2d-18          [-1, 128, 16, 16]             256
             ReLU-19          [-1, 128, 16, 16]               0
           Conv2d-20          [-1, 128, 16, 16]         147,456
      BatchNorm2d-21          [-1, 128, 16, 16]             256
           Conv2d-22          [-1, 128, 16, 16]           8,192
      BatchNorm2d-23          [-1, 128, 16, 16]             256
    ResidualBlock-24          [-1, 128, 16, 16]               0
           Conv2d-25          [-1, 128, 16, 16]         147,456
      BatchNorm2d-26          [-1, 128, 16, 16]             256
             ReLU-27          [-1, 128, 16, 16]               0
           Conv2d-28          [-1, 128, 16, 16]         147,456
      BatchNorm2d-29          [-1, 128, 16, 16]             256
    ResidualBlock-30          [-1, 128, 16, 16]               0
           Conv2d-31            [-1, 256, 8, 8]         294,912
      BatchNorm2d-32            [-1, 256, 8, 8]             512
             ReLU-33            [-1, 256, 8, 8]               0
           Conv2d-34            [-1, 256, 8, 8]         589,824
      BatchNorm2d-35            [-1, 256, 8, 8]             512
           Conv2d-36            [-1, 256, 8, 8]          32,768
      BatchNorm2d-37            [-1, 256, 8, 8]             512
    ResidualBlock-38            [-1, 256, 8, 8]               0
           Conv2d-39            [-1, 256, 8, 8]         589,824
      BatchNorm2d-40            [-1, 256, 8, 8]             512
             ReLU-41            [-1, 256, 8, 8]               0
           Conv2d-42            [-1, 256, 8, 8]         589,824
      BatchNorm2d-43            [-1, 256, 8, 8]             512
    ResidualBlock-44            [-1, 256, 8, 8]               0
           Conv2d-45            [-1, 512, 4, 4]       1,179,648
      BatchNorm2d-46            [-1, 512, 4, 4]           1,024
             ReLU-47            [-1, 512, 4, 4]               0
           Conv2d-48            [-1, 512, 4, 4]       2,359,296
      BatchNorm2d-49            [-1, 512, 4, 4]           1,024
           Conv2d-50            [-1, 512, 4, 4]         131,072
      BatchNorm2d-51            [-1, 512, 4, 4]           1,024
    ResidualBlock-52            [-1, 512, 4, 4]               0
           Conv2d-53            [-1, 512, 4, 4]       2,359,296
      BatchNorm2d-54            [-1, 512, 4, 4]           1,024
             ReLU-55            [-1, 512, 4, 4]               0
           Conv2d-56            [-1, 512, 4, 4]       2,359,296
      BatchNorm2d-57            [-1, 512, 4, 4]           1,024
    ResidualBlock-58            [-1, 512, 4, 4]               0
           Linear-59                 [-1, 4096]       2,101,248
      BatchNorm1d-60                 [-1, 4096]           8,192
          Dropout-61                 [-1, 4096]               0
           Linear-62                  [-1, 256]       1,048,832
      BatchNorm1d-63                  [-1, 256]             512
          Dropout-64                  [-1, 256]               0
           Linear-65                   [-1, 10]           2,570
================================================================
Total params: 14,329,035
Trainable params: 14,329,035
Non-trainable params: 0
----------------------------------------------------------------
Input size (MB): 0.00
Forward/backward pass size (MB): 13.73
Params size (MB): 54.66
Estimated Total Size (MB): 68.40
----------------------------------------------------------------
----------------------------------------------------------------
        Layer (type)               Output Shape         Param #
================================================================
            Conv2d-1            [-1, 1, 32, 32]               1
            Conv2d-2           [-1, 64, 32, 32]             576
       BatchNorm2d-3           [-1, 64, 32, 32]             128
              ReLU-4           [-1, 64, 32, 32]               0
            Conv2d-5           [-1, 64, 32, 32]          36,864
       BatchNorm2d-6           [-1, 64, 32, 32]             128
              ReLU-7           [-1, 64, 32, 32]               0
            Conv2d-8           [-1, 64, 32, 32]          36,864
       BatchNorm2d-9           [-1, 64, 32, 32]             128
    ResidualBlock-10           [-1, 64, 32, 32]               0
           Conv2d-11           [-1, 64, 32, 32]          36,864
      BatchNorm2d-12           [-1, 64, 32, 32]             128
             ReLU-13           [-1, 64, 32, 32]               0
           Conv2d-14           [-1, 64, 32, 32]          36,864
      BatchNorm2d-15           [-1, 64, 32, 32]             128
    ResidualBlock-16           [-1, 64, 32, 32]               0
           Conv2d-17          [-1, 128, 16, 16]          73,728
      BatchNorm2d-18          [-1, 128, 16, 16]             256
             ReLU-19          [-1, 128, 16, 16]               0
           Conv2d-20          [-1, 128, 16, 16]         147,456
      BatchNorm2d-21          [-1, 128, 16, 16]             256
           Conv2d-22          [-1, 128, 16, 16]           8,192
      BatchNorm2d-23          [-1, 128, 16, 16]             256
    ResidualBlock-24          [-1, 128, 16, 16]               0
           Conv2d-25          [-1, 128, 16, 16]         147,456
      BatchNorm2d-26          [-1, 128, 16, 16]             256
             ReLU-27          [-1, 128, 16, 16]               0
           Conv2d-28          [-1, 128, 16, 16]         147,456
      BatchNorm2d-29          [-1, 128, 16, 16]             256
    ResidualBlock-30          [-1, 128, 16, 16]               0
           Conv2d-31            [-1, 256, 8, 8]         294,912
      BatchNorm2d-32            [-1, 256, 8, 8]             512
             ReLU-33            [-1, 256, 8, 8]               0
           Conv2d-34            [-1, 256, 8, 8]         589,824
      BatchNorm2d-35            [-1, 256, 8, 8]             512
           Conv2d-36            [-1, 256, 8, 8]          32,768
      BatchNorm2d-37            [-1, 256, 8, 8]             512
    ResidualBlock-38            [-1, 256, 8, 8]               0
           Conv2d-39            [-1, 256, 8, 8]         589,824
      BatchNorm2d-40            [-1, 256, 8, 8]             512
             ReLU-41            [-1, 256, 8, 8]               0
           Conv2d-42            [-1, 256, 8, 8]         589,824
      BatchNorm2d-43            [-1, 256, 8, 8]             512
    ResidualBlock-44            [-1, 256, 8, 8]               0
           Conv2d-45            [-1, 512, 4, 4]       1,179,648
      BatchNorm2d-46            [-1, 512, 4, 4]           1,024
             ReLU-47            [-1, 512, 4, 4]               0
           Conv2d-48            [-1, 512, 4, 4]       2,359,296
      BatchNorm2d-49            [-1, 512, 4, 4]           1,024
           Conv2d-50            [-1, 512, 4, 4]         131,072
      BatchNorm2d-51            [-1, 512, 4, 4]           1,024
    ResidualBlock-52            [-1, 512, 4, 4]               0
           Conv2d-53            [-1, 512, 4, 4]       2,359,296
      BatchNorm2d-54            [-1, 512, 4, 4]           1,024
             ReLU-55            [-1, 512, 4, 4]               0
           Conv2d-56            [-1, 512, 4, 4]       2,359,296
      BatchNorm2d-57            [-1, 512, 4, 4]           1,024
    ResidualBlock-58            [-1, 512, 4, 4]               0
           Linear-59                 [-1, 4096]       2,101,248
      BatchNorm1d-60                 [-1, 4096]           8,192
          Dropout-61                 [-1, 4096]               0
           Linear-62                  [-1, 256]       1,048,832
      BatchNorm1d-63                  [-1, 256]             512
          Dropout-64                  [-1, 256]               0
           Linear-65                   [-1, 10]           2,570
================================================================
Total params: 14,329,035
Trainable params: 14,329,035
Non-trainable params: 0
----------------------------------------------------------------
Input size (MB): 0.00
Forward/backward pass size (MB): 13.73
Params size (MB): 54.66
Estimated Total Size (MB): 68.40
----------------------------------------------------------------
----------------------------------------------------------------
        Layer (type)               Output Shape         Param #
================================================================
            Conv2d-1            [-1, 1, 32, 32]               1
            Conv2d-2           [-1, 64, 32, 32]             576
       BatchNorm2d-3           [-1, 64, 32, 32]             128
              ReLU-4           [-1, 64, 32, 32]               0
            Conv2d-5           [-1, 64, 32, 32]          36,864
       BatchNorm2d-6           [-1, 64, 32, 32]             128
              ReLU-7           [-1, 64, 32, 32]               0
            Conv2d-8           [-1, 64, 32, 32]          36,864
       BatchNorm2d-9           [-1, 64, 32, 32]             128
    ResidualBlock-10           [-1, 64, 32, 32]               0
           Conv2d-11           [-1, 64, 32, 32]          36,864
      BatchNorm2d-12           [-1, 64, 32, 32]             128
             ReLU-13           [-1, 64, 32, 32]               0
           Conv2d-14           [-1, 64, 32, 32]          36,864
      BatchNorm2d-15           [-1, 64, 32, 32]             128
    ResidualBlock-16           [-1, 64, 32, 32]               0
           Conv2d-17          [-1, 128, 16, 16]          73,728
      BatchNorm2d-18          [-1, 128, 16, 16]             256
             ReLU-19          [-1, 128, 16, 16]               0
           Conv2d-20          [-1, 128, 16, 16]         147,456
      BatchNorm2d-21          [-1, 128, 16, 16]             256
           Conv2d-22          [-1, 128, 16, 16]           8,192
      BatchNorm2d-23          [-1, 128, 16, 16]             256
    ResidualBlock-24          [-1, 128, 16, 16]               0
           Conv2d-25          [-1, 128, 16, 16]         147,456
      BatchNorm2d-26          [-1, 128, 16, 16]             256
             ReLU-27          [-1, 128, 16, 16]               0
           Conv2d-28          [-1, 128, 16, 16]         147,456
      BatchNorm2d-29          [-1, 128, 16, 16]             256
    ResidualBlock-30          [-1, 128, 16, 16]               0
           Conv2d-31            [-1, 256, 8, 8]         294,912
      BatchNorm2d-32            [-1, 256, 8, 8]             512
             ReLU-33            [-1, 256, 8, 8]               0
           Conv2d-34            [-1, 256, 8, 8]         589,824
      BatchNorm2d-35            [-1, 256, 8, 8]             512
           Conv2d-36            [-1, 256, 8, 8]          32,768
      BatchNorm2d-37            [-1, 256, 8, 8]             512
    ResidualBlock-38            [-1, 256, 8, 8]               0
           Conv2d-39            [-1, 256, 8, 8]         589,824
      BatchNorm2d-40            [-1, 256, 8, 8]             512
             ReLU-41            [-1, 256, 8, 8]               0
           Conv2d-42            [-1, 256, 8, 8]         589,824
      BatchNorm2d-43            [-1, 256, 8, 8]             512
    ResidualBlock-44            [-1, 256, 8, 8]               0
           Conv2d-45            [-1, 512, 4, 4]       1,179,648
      BatchNorm2d-46            [-1, 512, 4, 4]           1,024
             ReLU-47            [-1, 512, 4, 4]               0
           Conv2d-48            [-1, 512, 4, 4]       2,359,296
      BatchNorm2d-49            [-1, 512, 4, 4]           1,024
           Conv2d-50            [-1, 512, 4, 4]         131,072
      BatchNorm2d-51            [-1, 512, 4, 4]           1,024
    ResidualBlock-52            [-1, 512, 4, 4]               0
           Conv2d-53            [-1, 512, 4, 4]       2,359,296
      BatchNorm2d-54            [-1, 512, 4, 4]           1,024
             ReLU-55            [-1, 512, 4, 4]               0
           Conv2d-56            [-1, 512, 4, 4]       2,359,296
      BatchNorm2d-57            [-1, 512, 4, 4]           1,024
    ResidualBlock-58            [-1, 512, 4, 4]               0
           Linear-59                 [-1, 4096]       2,101,248
      BatchNorm1d-60                 [-1, 4096]           8,192
          Dropout-61                 [-1, 4096]               0
           Linear-62                  [-1, 256]       1,048,832
      BatchNorm1d-63                  [-1, 256]             512
          Dropout-64                  [-1, 256]               0
           Linear-65                   [-1, 10]           2,570
================================================================
Total params: 14,329,035
Trainable params: 14,329,035
Non-trainable params: 0
----------------------------------------------------------------
Input size (MB): 0.00
Forward/backward pass size (MB): 13.73
Params size (MB): 54.66
Estimated Total Size (MB): 68.40
----------------------------------------------------------------
----------------------------------------------------------------
        Layer (type)               Output Shape         Param #
================================================================
            Conv2d-1            [-1, 1, 32, 32]               1
            Conv2d-2           [-1, 64, 32, 32]             576
       BatchNorm2d-3           [-1, 64, 32, 32]             128
              ReLU-4           [-1, 64, 32, 32]               0
            Conv2d-5           [-1, 64, 32, 32]          36,864
       BatchNorm2d-6           [-1, 64, 32, 32]             128
              ReLU-7           [-1, 64, 32, 32]               0
            Conv2d-8           [-1, 64, 32, 32]          36,864
       BatchNorm2d-9           [-1, 64, 32, 32]             128
    ResidualBlock-10           [-1, 64, 32, 32]               0
           Conv2d-11           [-1, 64, 32, 32]          36,864
      BatchNorm2d-12           [-1, 64, 32, 32]             128
             ReLU-13           [-1, 64, 32, 32]               0
           Conv2d-14           [-1, 64, 32, 32]          36,864
      BatchNorm2d-15           [-1, 64, 32, 32]             128
    ResidualBlock-16           [-1, 64, 32, 32]               0
           Conv2d-17          [-1, 128, 16, 16]          73,728
      BatchNorm2d-18          [-1, 128, 16, 16]             256
             ReLU-19          [-1, 128, 16, 16]               0
           Conv2d-20          [-1, 128, 16, 16]         147,456
      BatchNorm2d-21          [-1, 128, 16, 16]             256
           Conv2d-22          [-1, 128, 16, 16]           8,192
      BatchNorm2d-23          [-1, 128, 16, 16]             256
    ResidualBlock-24          [-1, 128, 16, 16]               0
           Conv2d-25          [-1, 128, 16, 16]         147,456
      BatchNorm2d-26          [-1, 128, 16, 16]             256
             ReLU-27          [-1, 128, 16, 16]               0
           Conv2d-28          [-1, 128, 16, 16]         147,456
      BatchNorm2d-29          [-1, 128, 16, 16]             256
    ResidualBlock-30          [-1, 128, 16, 16]               0
           Conv2d-31            [-1, 256, 8, 8]         294,912
      BatchNorm2d-32            [-1, 256, 8, 8]             512
             ReLU-33            [-1, 256, 8, 8]               0
           Conv2d-34            [-1, 256, 8, 8]         589,824
      BatchNorm2d-35            [-1, 256, 8, 8]             512
           Conv2d-36            [-1, 256, 8, 8]          32,768
      BatchNorm2d-37            [-1, 256, 8, 8]             512
    ResidualBlock-38            [-1, 256, 8, 8]               0
           Conv2d-39            [-1, 256, 8, 8]         589,824
      BatchNorm2d-40            [-1, 256, 8, 8]             512
             ReLU-41            [-1, 256, 8, 8]               0
           Conv2d-42            [-1, 256, 8, 8]         589,824
      BatchNorm2d-43            [-1, 256, 8, 8]             512
    ResidualBlock-44            [-1, 256, 8, 8]               0
           Conv2d-45            [-1, 512, 4, 4]       1,179,648
      BatchNorm2d-46            [-1, 512, 4, 4]           1,024
             ReLU-47            [-1, 512, 4, 4]               0
           Conv2d-48            [-1, 512, 4, 4]       2,359,296
      BatchNorm2d-49            [-1, 512, 4, 4]           1,024
           Conv2d-50            [-1, 512, 4, 4]         131,072
      BatchNorm2d-51            [-1, 512, 4, 4]           1,024
    ResidualBlock-52            [-1, 512, 4, 4]               0
           Conv2d-53            [-1, 512, 4, 4]       2,359,296
      BatchNorm2d-54            [-1, 512, 4, 4]           1,024
             ReLU-55            [-1, 512, 4, 4]               0
           Conv2d-56            [-1, 512, 4, 4]       2,359,296
      BatchNorm2d-57            [-1, 512, 4, 4]           1,024
    ResidualBlock-58            [-1, 512, 4, 4]               0
           Linear-59                 [-1, 4096]       2,101,248
      BatchNorm1d-60                 [-1, 4096]           8,192
          Dropout-61                 [-1, 4096]               0
           Linear-62                  [-1, 256]       1,048,832
      BatchNorm1d-63                  [-1, 256]             512
          Dropout-64                  [-1, 256]               0
           Linear-65                   [-1, 10]           2,570
================================================================
Total params: 14,329,035
Trainable params: 14,329,035
Non-trainable params: 0
----------------------------------------------------------------
Input size (MB): 0.00
Forward/backward pass size (MB): 13.73
Params size (MB): 54.66
Estimated Total Size (MB): 68.40
----------------------------------------------------------------
----------------------------------------------------------------
        Layer (type)               Output Shape         Param #
================================================================
            Conv2d-1            [-1, 1, 32, 32]               1
            Conv2d-2           [-1, 64, 32, 32]             576
       BatchNorm2d-3           [-1, 64, 32, 32]             128
              ReLU-4           [-1, 64, 32, 32]               0
            Conv2d-5           [-1, 64, 32, 32]          36,864
       BatchNorm2d-6           [-1, 64, 32, 32]             128
              ReLU-7           [-1, 64, 32, 32]               0
            Conv2d-8           [-1, 64, 32, 32]          36,864
       BatchNorm2d-9           [-1, 64, 32, 32]             128
    ResidualBlock-10           [-1, 64, 32, 32]               0
           Conv2d-11           [-1, 64, 32, 32]          36,864
      BatchNorm2d-12           [-1, 64, 32, 32]             128
             ReLU-13           [-1, 64, 32, 32]               0
           Conv2d-14           [-1, 64, 32, 32]          36,864
      BatchNorm2d-15           [-1, 64, 32, 32]             128
    ResidualBlock-16           [-1, 64, 32, 32]               0
           Conv2d-17          [-1, 128, 16, 16]          73,728
      BatchNorm2d-18          [-1, 128, 16, 16]             256
             ReLU-19          [-1, 128, 16, 16]               0
           Conv2d-20          [-1, 128, 16, 16]         147,456
      BatchNorm2d-21          [-1, 128, 16, 16]             256
           Conv2d-22          [-1, 128, 16, 16]           8,192
      BatchNorm2d-23          [-1, 128, 16, 16]             256
    ResidualBlock-24          [-1, 128, 16, 16]               0
           Conv2d-25          [-1, 128, 16, 16]         147,456
      BatchNorm2d-26          [-1, 128, 16, 16]             256
             ReLU-27          [-1, 128, 16, 16]               0
           Conv2d-28          [-1, 128, 16, 16]         147,456
      BatchNorm2d-29          [-1, 128, 16, 16]             256
    ResidualBlock-30          [-1, 128, 16, 16]               0
           Conv2d-31            [-1, 256, 8, 8]         294,912
      BatchNorm2d-32            [-1, 256, 8, 8]             512
             ReLU-33            [-1, 256, 8, 8]               0
           Conv2d-34            [-1, 256, 8, 8]         589,824
      BatchNorm2d-35            [-1, 256, 8, 8]             512
           Conv2d-36            [-1, 256, 8, 8]          32,768
      BatchNorm2d-37            [-1, 256, 8, 8]             512
    ResidualBlock-38            [-1, 256, 8, 8]               0
           Conv2d-39            [-1, 256, 8, 8]         589,824
      BatchNorm2d-40            [-1, 256, 8, 8]             512
             ReLU-41            [-1, 256, 8, 8]               0
           Conv2d-42            [-1, 256, 8, 8]         589,824
      BatchNorm2d-43            [-1, 256, 8, 8]             512
    ResidualBlock-44            [-1, 256, 8, 8]               0
           Conv2d-45            [-1, 512, 4, 4]       1,179,648
      BatchNorm2d-46            [-1, 512, 4, 4]           1,024
             ReLU-47            [-1, 512, 4, 4]               0
           Conv2d-48            [-1, 512, 4, 4]       2,359,296
      BatchNorm2d-49            [-1, 512, 4, 4]           1,024
           Conv2d-50            [-1, 512, 4, 4]         131,072
      BatchNorm2d-51            [-1, 512, 4, 4]           1,024
    ResidualBlock-52            [-1, 512, 4, 4]               0
           Conv2d-53            [-1, 512, 4, 4]       2,359,296
      BatchNorm2d-54            [-1, 512, 4, 4]           1,024
             ReLU-55            [-1, 512, 4, 4]               0
           Conv2d-56            [-1, 512, 4, 4]       2,359,296
      BatchNorm2d-57            [-1, 512, 4, 4]           1,024
    ResidualBlock-58            [-1, 512, 4, 4]               0
           Linear-59                 [-1, 4096]       2,101,248
      BatchNorm1d-60                 [-1, 4096]           8,192
          Dropout-61                 [-1, 4096]               0
           Linear-62                  [-1, 256]       1,048,832
      BatchNorm1d-63                  [-1, 256]             512
          Dropout-64                  [-1, 256]               0
           Linear-65                   [-1, 10]           2,570
================================================================
Total params: 14,329,035
Trainable params: 14,329,035
Non-trainable params: 0
----------------------------------------------------------------
Input size (MB): 0.00
Forward/backward pass size (MB): 13.73
Params size (MB): 54.66
Estimated Total Size (MB): 68.40
----------------------------------------------------------------
echo: 0
loss: 0.8927056227250122
…
Iteration:1000  Loss:tensor(0.3722, device='cuda:0', grad_fn=<NllLossBackward>)  Accuracy:tensor(16, device='cuda:0')
echo: 4
loss: 0.43287357984560926
accuracy: 0.8582296603475513
echo: 5
loss: 0.39379016461813054
accuracy: 0.8740151066350711
echo: 6
loss: 0.3625550426860556
accuracy: 0.8840022709320696
Iteration:1500  Loss:tensor(0.2923, device='cuda:0', grad_fn=<NllLossBackward>)  Accuracy:tensor(14, device='cuda:0')
echo: 7
loss: 0.3419636009146252
accuracy: 0.8911211492890996
----------------------------------------------------------------
        Layer (type)               Output Shape         Param #
================================================================
            Conv2d-1            [-1, 1, 32, 32]               1
            Conv2d-2           [-1, 64, 32, 32]             576
       BatchNorm2d-3           [-1, 64, 32, 32]             128
              ReLU-4           [-1, 64, 32, 32]               0
            Conv2d-5           [-1, 64, 32, 32]          36,864
       BatchNorm2d-6           [-1, 64, 32, 32]             128
              ReLU-7           [-1, 64, 32, 32]               0
            Conv2d-8           [-1, 64, 32, 32]          36,864
       BatchNorm2d-9           [-1, 64, 32, 32]             128
    ResidualBlock-10           [-1, 64, 32, 32]               0
           Conv2d-11           [-1, 64, 32, 32]          36,864
      BatchNorm2d-12           [-1, 64, 32, 32]             128
             ReLU-13           [-1, 64, 32, 32]               0
           Conv2d-14           [-1, 64, 32, 32]          36,864
      BatchNorm2d-15           [-1, 64, 32, 32]             128
    ResidualBlock-16           [-1, 64, 32, 32]               0
           Conv2d-17          [-1, 128, 16, 16]          73,728
      BatchNorm2d-18          [-1, 128, 16, 16]             256
             ReLU-19          [-1, 128, 16, 16]               0
           Conv2d-20          [-1, 128, 16, 16]         147,456
      BatchNorm2d-21          [-1, 128, 16, 16]             256
           Conv2d-22          [-1, 128, 16, 16]           8,192
      BatchNorm2d-23          [-1, 128, 16, 16]             256
    ResidualBlock-24          [-1, 128, 16, 16]               0
           Conv2d-25          [-1, 128, 16, 16]         147,456
      BatchNorm2d-26          [-1, 128, 16, 16]             256
             ReLU-27          [-1, 128, 16, 16]               0
           Conv2d-28          [-1, 128, 16, 16]         147,456
      BatchNorm2d-29          [-1, 128, 16, 16]             256
    ResidualBlock-30          [-1, 128, 16, 16]               0
           Conv2d-31            [-1, 256, 8, 8]         294,912
      BatchNorm2d-32            [-1, 256, 8, 8]             512
             ReLU-33            [-1, 256, 8, 8]               0
           Conv2d-34            [-1, 256, 8, 8]         589,824
      BatchNorm2d-35            [-1, 256, 8, 8]             512
           Conv2d-36            [-1, 256, 8, 8]          32,768
      BatchNorm2d-37            [-1, 256, 8, 8]             512
    ResidualBlock-38            [-1, 256, 8, 8]               0
           Conv2d-39            [-1, 256, 8, 8]         589,824
      BatchNorm2d-40            [-1, 256, 8, 8]             512
             ReLU-41            [-1, 256, 8, 8]               0
           Conv2d-42            [-1, 256, 8, 8]         589,824
      BatchNorm2d-43            [-1, 256, 8, 8]             512
    ResidualBlock-44            [-1, 256, 8, 8]               0
           Conv2d-45            [-1, 512, 4, 4]       1,179,648
      BatchNorm2d-46            [-1, 512, 4, 4]           1,024
             ReLU-47            [-1, 512, 4, 4]               0
           Conv2d-48            [-1, 512, 4, 4]       2,359,296
      BatchNorm2d-49            [-1, 512, 4, 4]           1,024
           Conv2d-50            [-1, 512, 4, 4]         131,072
      BatchNorm2d-51            [-1, 512, 4, 4]           1,024
    ResidualBlock-52            [-1, 512, 4, 4]               0
           Conv2d-53            [-1, 512, 4, 4]       2,359,296
      BatchNorm2d-54            [-1, 512, 4, 4]           1,024
             ReLU-55            [-1, 512, 4, 4]               0
           Conv2d-56            [-1, 512, 4, 4]       2,359,296
      BatchNorm2d-57            [-1, 512, 4, 4]           1,024
    ResidualBlock-58            [-1, 512, 4, 4]               0
           Linear-59                 [-1, 4096]       2,101,248
      BatchNorm1d-60                 [-1, 4096]           8,192
          Dropout-61                 [-1, 4096]               0
           Linear-62                  [-1, 256]       1,048,832
      BatchNorm1d-63                  [-1, 256]             512
          Dropout-64                  [-1, 256]               0
           Linear-65                   [-1, 10]           2,570
================================================================
Total params: 14,329,035
Trainable params: 14,329,035
Non-trainable params: 0
----------------------------------------------------------------
Input size (MB): 0.00
Forward/backward pass size (MB): 13.73
Params size (MB): 54.66
Estimated Total Size (MB): 68.40
----------------------------------------------------------------
echo: 0
loss: 0.904210557022366
accuracy: 0.6772018167456555
echo: 1
loss: 0.6272621728232687
accuracy: 0.7869594194312797
Iteration:500  Loss:tensor(0.4807, device='cuda:0', grad_fn=<NllLossBackward>)  Accuracy:tensor(81, device='cuda:0')
----------------------------------------------------------------
        Layer (type)               Output Shape         Param #
================================================================
            Conv2d-1            [-1, 1, 32, 32]               1
            Conv2d-2           [-1, 64, 32, 32]             576
       BatchNorm2d-3           [-1, 64, 32, 32]             128
              ReLU-4           [-1, 64, 32, 32]               0
            Conv2d-5           [-1, 64, 32, 32]          36,864
       BatchNorm2d-6           [-1, 64, 32, 32]             128
              ReLU-7           [-1, 64, 32, 32]               0
            Conv2d-8           [-1, 64, 32, 32]          36,864
       BatchNorm2d-9           [-1, 64, 32, 32]             128
    ResidualBlock-10           [-1, 64, 32, 32]               0
           Conv2d-11           [-1, 64, 32, 32]          36,864
      BatchNorm2d-12           [-1, 64, 32, 32]             128
             ReLU-13           [-1, 64, 32, 32]               0
           Conv2d-14           [-1, 64, 32, 32]          36,864
      BatchNorm2d-15           [-1, 64, 32, 32]             128
    ResidualBlock-16           [-1, 64, 32, 32]               0
           Conv2d-17          [-1, 128, 16, 16]          73,728
      BatchNorm2d-18          [-1, 128, 16, 16]             256
             ReLU-19          [-1, 128, 16, 16]               0
           Conv2d-20          [-1, 128, 16, 16]         147,456
      BatchNorm2d-21          [-1, 128, 16, 16]             256
           Conv2d-22          [-1, 128, 16, 16]           8,192
      BatchNorm2d-23          [-1, 128, 16, 16]             256
    ResidualBlock-24          [-1, 128, 16, 16]               0
           Conv2d-25          [-1, 128, 16, 16]         147,456
      BatchNorm2d-26          [-1, 128, 16, 16]             256
             ReLU-27          [-1, 128, 16, 16]               0
           Conv2d-28          [-1, 128, 16, 16]         147,456
      BatchNorm2d-29          [-1, 128, 16, 16]             256
    ResidualBlock-30          [-1, 128, 16, 16]               0
           Conv2d-31            [-1, 256, 8, 8]         294,912
      BatchNorm2d-32            [-1, 256, 8, 8]             512
             ReLU-33            [-1, 256, 8, 8]               0
           Conv2d-34            [-1, 256, 8, 8]         589,824
      BatchNorm2d-35            [-1, 256, 8, 8]             512
           Conv2d-36            [-1, 256, 8, 8]          32,768
      BatchNorm2d-37            [-1, 256, 8, 8]             512
    ResidualBlock-38            [-1, 256, 8, 8]               0
           Conv2d-39            [-1, 256, 8, 8]         589,824
      BatchNorm2d-40            [-1, 256, 8, 8]             512
             ReLU-41            [-1, 256, 8, 8]               0
           Conv2d-42            [-1, 256, 8, 8]         589,824
      BatchNorm2d-43            [-1, 256, 8, 8]             512
    ResidualBlock-44            [-1, 256, 8, 8]               0
           Conv2d-45            [-1, 512, 4, 4]       1,179,648
      BatchNorm2d-46            [-1, 512, 4, 4]           1,024
             ReLU-47            [-1, 512, 4, 4]               0
           Conv2d-48            [-1, 512, 4, 4]       2,359,296
      BatchNorm2d-49            [-1, 512, 4, 4]           1,024
           Conv2d-50            [-1, 512, 4, 4]         131,072
      BatchNorm2d-51            [-1, 512, 4, 4]           1,024
    ResidualBlock-52            [-1, 512, 4, 4]               0
           Conv2d-53            [-1, 512, 4, 4]       2,359,296
      BatchNorm2d-54            [-1, 512, 4, 4]           1,024
             ReLU-55            [-1, 512, 4, 4]               0
           Conv2d-56            [-1, 512, 4, 4]       2,359,296
      BatchNorm2d-57            [-1, 512, 4, 4]           1,024
    ResidualBlock-58            [-1, 512, 4, 4]               0
           Linear-59                 [-1, 4096]       2,101,248
      BatchNorm1d-60                 [-1, 4096]           8,192
          Dropout-61                 [-1, 4096]               0
           Linear-62                  [-1, 256]       1,048,832
      BatchNorm1d-63                  [-1, 256]             512
          Dropout-64                  [-1, 256]               0
           Linear-65                   [-1, 10]           2,570
================================================================
Total params: 14,329,035
Trainable params: 14,329,035
Non-trainable params: 0
----------------------------------------------------------------
Input size (MB): 0.00
Forward/backward pass size (MB): 13.73
Params size (MB): 54.66
Estimated Total Size (MB): 68.40
----------------------------------------------------------------
Iteration:500  Loss:tensor(0.9196, device='cuda:0', grad_fn=<NllLossBackward>)  Accuracy:tensor(74, device='cuda:0')
…
