----------------------------------------------------------------
        Layer (type)               Output Shape         Param #
================================================================
            Conv2d-1           [-1, 64, 32, 32]             128
            Conv2d-2           [-1, 64, 32, 32]           4,096
       BatchNorm2d-3           [-1, 64, 32, 32]             128
              ReLU-4           [-1, 64, 32, 32]               0
       BasicConv2d-5           [-1, 64, 32, 32]               0
            Conv2d-6           [-1, 96, 32, 32]           6,144
       BatchNorm2d-7           [-1, 96, 32, 32]             192
              ReLU-8           [-1, 96, 32, 32]               0
       BasicConv2d-9           [-1, 96, 32, 32]               0
           Conv2d-10          [-1, 128, 32, 32]         110,592
      BatchNorm2d-11          [-1, 128, 32, 32]             256
             ReLU-12          [-1, 128, 32, 32]               0
      BasicConv2d-13          [-1, 128, 32, 32]               0
           Conv2d-14           [-1, 16, 32, 32]           1,024
      BatchNorm2d-15           [-1, 16, 32, 32]              32
             ReLU-16           [-1, 16, 32, 32]               0
      BasicConv2d-17           [-1, 16, 32, 32]               0
           Conv2d-18           [-1, 32, 32, 32]          12,800
      BatchNorm2d-19           [-1, 32, 32, 32]              64
             ReLU-20           [-1, 32, 32, 32]               0
      BasicConv2d-21           [-1, 32, 32, 32]               0
        MaxPool2d-22           [-1, 64, 32, 32]               0
           Conv2d-23           [-1, 32, 32, 32]           2,048
      BatchNorm2d-24           [-1, 32, 32, 32]              64
             ReLU-25           [-1, 32, 32, 32]               0
      BasicConv2d-26           [-1, 32, 32, 32]               0
        Inception-27          [-1, 256, 32, 32]               0
           Conv2d-28          [-1, 128, 32, 32]          32,768
      BatchNorm2d-29          [-1, 128, 32, 32]             256
             ReLU-30          [-1, 128, 32, 32]               0
      BasicConv2d-31          [-1, 128, 32, 32]               0
           Conv2d-32          [-1, 128, 32, 32]          32,768
      BatchNorm2d-33          [-1, 128, 32, 32]             256
             ReLU-34          [-1, 128, 32, 32]               0
      BasicConv2d-35          [-1, 128, 32, 32]               0
           Conv2d-36          [-1, 192, 32, 32]         221,184
      BatchNorm2d-37          [-1, 192, 32, 32]             384
             ReLU-38          [-1, 192, 32, 32]               0
      BasicConv2d-39          [-1, 192, 32, 32]               0
           Conv2d-40           [-1, 32, 32, 32]           8,192
      BatchNorm2d-41           [-1, 32, 32, 32]              64
             ReLU-42           [-1, 32, 32, 32]               0
      BasicConv2d-43           [-1, 32, 32, 32]               0
           Conv2d-44           [-1, 96, 32, 32]          76,800
      BatchNorm2d-45           [-1, 96, 32, 32]             192
             ReLU-46           [-1, 96, 32, 32]               0
      BasicConv2d-47           [-1, 96, 32, 32]               0
        MaxPool2d-48          [-1, 256, 32, 32]               0
           Conv2d-49           [-1, 64, 32, 32]          16,384
      BatchNorm2d-50           [-1, 64, 32, 32]             128
             ReLU-51           [-1, 64, 32, 32]               0
      BasicConv2d-52           [-1, 64, 32, 32]               0
        Inception-53          [-1, 480, 32, 32]               0
        MaxPool2d-54          [-1, 480, 16, 16]               0
           Conv2d-55          [-1, 192, 16, 16]          92,160
      BatchNorm2d-56          [-1, 192, 16, 16]             384
             ReLU-57          [-1, 192, 16, 16]               0
      BasicConv2d-58          [-1, 192, 16, 16]               0
           Conv2d-59           [-1, 96, 16, 16]          46,080
      BatchNorm2d-60           [-1, 96, 16, 16]             192
             ReLU-61           [-1, 96, 16, 16]               0
      BasicConv2d-62           [-1, 96, 16, 16]               0
           Conv2d-63          [-1, 208, 16, 16]         179,712
      BatchNorm2d-64          [-1, 208, 16, 16]             416
             ReLU-65          [-1, 208, 16, 16]               0
      BasicConv2d-66          [-1, 208, 16, 16]               0
           Conv2d-67           [-1, 16, 16, 16]           7,680
      BatchNorm2d-68           [-1, 16, 16, 16]              32
             ReLU-69           [-1, 16, 16, 16]               0
      BasicConv2d-70           [-1, 16, 16, 16]               0
           Conv2d-71           [-1, 48, 16, 16]          19,200
      BatchNorm2d-72           [-1, 48, 16, 16]              96
             ReLU-73           [-1, 48, 16, 16]               0
      BasicConv2d-74           [-1, 48, 16, 16]               0
        MaxPool2d-75          [-1, 480, 16, 16]               0
           Conv2d-76           [-1, 64, 16, 16]          30,720
      BatchNorm2d-77           [-1, 64, 16, 16]             128
             ReLU-78           [-1, 64, 16, 16]               0
      BasicConv2d-79           [-1, 64, 16, 16]               0
        Inception-80          [-1, 512, 16, 16]               0
           Conv2d-81          [-1, 160, 16, 16]          81,920
      BatchNorm2d-82          [-1, 160, 16, 16]             320
             ReLU-83          [-1, 160, 16, 16]               0
      BasicConv2d-84          [-1, 160, 16, 16]               0
           Conv2d-85          [-1, 112, 16, 16]          57,344
      BatchNorm2d-86          [-1, 112, 16, 16]             224
             ReLU-87          [-1, 112, 16, 16]               0
      BasicConv2d-88          [-1, 112, 16, 16]               0
           Conv2d-89          [-1, 224, 16, 16]         225,792
      BatchNorm2d-90          [-1, 224, 16, 16]             448
             ReLU-91          [-1, 224, 16, 16]               0
      BasicConv2d-92          [-1, 224, 16, 16]               0
           Conv2d-93           [-1, 24, 16, 16]          12,288
      BatchNorm2d-94           [-1, 24, 16, 16]              48
             ReLU-95           [-1, 24, 16, 16]               0
      BasicConv2d-96           [-1, 24, 16, 16]               0
           Conv2d-97           [-1, 64, 16, 16]          38,400
      BatchNorm2d-98           [-1, 64, 16, 16]             128
             ReLU-99           [-1, 64, 16, 16]               0
     BasicConv2d-100           [-1, 64, 16, 16]               0
       MaxPool2d-101          [-1, 512, 16, 16]               0
          Conv2d-102           [-1, 64, 16, 16]          32,768
     BatchNorm2d-103           [-1, 64, 16, 16]             128
            ReLU-104           [-1, 64, 16, 16]               0
     BasicConv2d-105           [-1, 64, 16, 16]               0
       Inception-106          [-1, 512, 16, 16]               0
       AvgPool2d-107            [-1, 512, 2, 2]               0
         Dropout-108            [-1, 512, 2, 2]               0
          Linear-109                   [-1, 10]          20,490
================================================================
Total params: 1,374,042
Trainable params: 1,374,042
Non-trainable params: 0
----------------------------------------------------------------
Input size (MB): 0.00
Forward/backward pass size (MB): 55.09
Params size (MB): 5.24
Estimated Total Size (MB): 60.34
----------------------------------------------------------------
echo: 0
loss: 0.9159326929051729
…
accuracy: 0.9424688981042655
Iteration:15000  Loss:tensor(0.1255, device='cuda:0', grad_fn=<NllLossBackward>)  Accuracy:tensor(90, device='cuda:0')
echo: 71
loss: 0.1805534376211076
accuracy: 0.9422961097946287
echo: 72
loss: 0.17802575576644372
accuracy: 0.9431822669826224
Iteration:15500  Loss:tensor(0.1889, device='cuda:0', grad_fn=<NllLossBackward>)  Accuracy:tensor(90, device='cuda:0')
----------------------------------------------------------------
        Layer (type)               Output Shape         Param #
================================================================
            Conv2d-1           [-1, 64, 32, 32]             128
            Conv2d-2           [-1, 64, 32, 32]           4,096
       BatchNorm2d-3           [-1, 64, 32, 32]             128
              ReLU-4           [-1, 64, 32, 32]               0
       BasicConv2d-5           [-1, 64, 32, 32]               0
            Conv2d-6           [-1, 96, 32, 32]           6,144
       BatchNorm2d-7           [-1, 96, 32, 32]             192
              ReLU-8           [-1, 96, 32, 32]               0
       BasicConv2d-9           [-1, 96, 32, 32]               0
           Conv2d-10          [-1, 128, 32, 32]         110,592
      BatchNorm2d-11          [-1, 128, 32, 32]             256
             ReLU-12          [-1, 128, 32, 32]               0
      BasicConv2d-13          [-1, 128, 32, 32]               0
           Conv2d-14           [-1, 16, 32, 32]           1,024
      BatchNorm2d-15           [-1, 16, 32, 32]              32
             ReLU-16           [-1, 16, 32, 32]               0
      BasicConv2d-17           [-1, 16, 32, 32]               0
           Conv2d-18           [-1, 32, 32, 32]          12,800
      BatchNorm2d-19           [-1, 32, 32, 32]              64
             ReLU-20           [-1, 32, 32, 32]               0
      BasicConv2d-21           [-1, 32, 32, 32]               0
        MaxPool2d-22           [-1, 64, 32, 32]               0
           Conv2d-23           [-1, 32, 32, 32]           2,048
      BatchNorm2d-24           [-1, 32, 32, 32]              64
             ReLU-25           [-1, 32, 32, 32]               0
      BasicConv2d-26           [-1, 32, 32, 32]               0
        Inception-27          [-1, 256, 32, 32]               0
           Conv2d-28          [-1, 128, 32, 32]          32,768
      BatchNorm2d-29          [-1, 128, 32, 32]             256
             ReLU-30          [-1, 128, 32, 32]               0
      BasicConv2d-31          [-1, 128, 32, 32]               0
           Conv2d-32          [-1, 128, 32, 32]          32,768
      BatchNorm2d-33          [-1, 128, 32, 32]             256
             ReLU-34          [-1, 128, 32, 32]               0
      BasicConv2d-35          [-1, 128, 32, 32]               0
           Conv2d-36          [-1, 192, 32, 32]         221,184
      BatchNorm2d-37          [-1, 192, 32, 32]             384
             ReLU-38          [-1, 192, 32, 32]               0
      BasicConv2d-39          [-1, 192, 32, 32]               0
           Conv2d-40           [-1, 32, 32, 32]           8,192
      BatchNorm2d-41           [-1, 32, 32, 32]              64
             ReLU-42           [-1, 32, 32, 32]               0
      BasicConv2d-43           [-1, 32, 32, 32]               0
           Conv2d-44           [-1, 96, 32, 32]          76,800
      BatchNorm2d-45           [-1, 96, 32, 32]             192
             ReLU-46           [-1, 96, 32, 32]               0
      BasicConv2d-47           [-1, 96, 32, 32]               0
        MaxPool2d-48          [-1, 256, 32, 32]               0
           Conv2d-49           [-1, 64, 32, 32]          16,384
      BatchNorm2d-50           [-1, 64, 32, 32]             128
             ReLU-51           [-1, 64, 32, 32]               0
      BasicConv2d-52           [-1, 64, 32, 32]               0
        Inception-53          [-1, 480, 32, 32]               0
        MaxPool2d-54          [-1, 480, 16, 16]               0
           Conv2d-55          [-1, 192, 16, 16]          92,160
      BatchNorm2d-56          [-1, 192, 16, 16]             384
             ReLU-57          [-1, 192, 16, 16]               0
      BasicConv2d-58          [-1, 192, 16, 16]               0
           Conv2d-59           [-1, 96, 16, 16]          46,080
      BatchNorm2d-60           [-1, 96, 16, 16]             192
             ReLU-61           [-1, 96, 16, 16]               0
      BasicConv2d-62           [-1, 96, 16, 16]               0
           Conv2d-63          [-1, 208, 16, 16]         179,712
      BatchNorm2d-64          [-1, 208, 16, 16]             416
             ReLU-65          [-1, 208, 16, 16]               0
      BasicConv2d-66          [-1, 208, 16, 16]               0
           Conv2d-67           [-1, 16, 16, 16]           7,680
      BatchNorm2d-68           [-1, 16, 16, 16]              32
             ReLU-69           [-1, 16, 16, 16]               0
      BasicConv2d-70           [-1, 16, 16, 16]               0
           Conv2d-71           [-1, 48, 16, 16]          19,200
      BatchNorm2d-72           [-1, 48, 16, 16]              96
             ReLU-73           [-1, 48, 16, 16]               0
      BasicConv2d-74           [-1, 48, 16, 16]               0
        MaxPool2d-75          [-1, 480, 16, 16]               0
           Conv2d-76           [-1, 64, 16, 16]          30,720
      BatchNorm2d-77           [-1, 64, 16, 16]             128
             ReLU-78           [-1, 64, 16, 16]               0
      BasicConv2d-79           [-1, 64, 16, 16]               0
        Inception-80          [-1, 512, 16, 16]               0
           Conv2d-81          [-1, 160, 16, 16]          81,920
      BatchNorm2d-82          [-1, 160, 16, 16]             320
             ReLU-83          [-1, 160, 16, 16]               0
      BasicConv2d-84          [-1, 160, 16, 16]               0
           Conv2d-85          [-1, 112, 16, 16]          57,344
      BatchNorm2d-86          [-1, 112, 16, 16]             224
             ReLU-87          [-1, 112, 16, 16]               0
      BasicConv2d-88          [-1, 112, 16, 16]               0
           Conv2d-89          [-1, 224, 16, 16]         225,792
      BatchNorm2d-90          [-1, 224, 16, 16]             448
             ReLU-91          [-1, 224, 16, 16]               0
      BasicConv2d-92          [-1, 224, 16, 16]               0
           Conv2d-93           [-1, 24, 16, 16]          12,288
      BatchNorm2d-94           [-1, 24, 16, 16]              48
             ReLU-95           [-1, 24, 16, 16]               0
      BasicConv2d-96           [-1, 24, 16, 16]               0
           Conv2d-97           [-1, 64, 16, 16]          38,400
      BatchNorm2d-98           [-1, 64, 16, 16]             128
             ReLU-99           [-1, 64, 16, 16]               0
     BasicConv2d-100           [-1, 64, 16, 16]               0
       MaxPool2d-101          [-1, 512, 16, 16]               0
          Conv2d-102           [-1, 64, 16, 16]          32,768
     BatchNorm2d-103           [-1, 64, 16, 16]             128
            ReLU-104           [-1, 64, 16, 16]               0
     BasicConv2d-105           [-1, 64, 16, 16]               0
       Inception-106          [-1, 512, 16, 16]               0
       AvgPool2d-107            [-1, 512, 2, 2]               0
         Dropout-108            [-1, 512, 2, 2]               0
          Linear-109                   [-1, 10]          20,490
================================================================
Total params: 1,374,042
Trainable params: 1,374,042
Non-trainable params: 0
----------------------------------------------------------------
Input size (MB): 0.00
Forward/backward pass size (MB): 55.09
Params size (MB): 5.24
Estimated Total Size (MB): 60.34
----------------------------------------------------------------
----------------------------------------------------------------
        Layer (type)               Output Shape         Param #
================================================================
            Conv2d-1           [-1, 64, 32, 32]             128
            Conv2d-2           [-1, 64, 32, 32]           4,096
       BatchNorm2d-3           [-1, 64, 32, 32]             128
              ReLU-4           [-1, 64, 32, 32]               0
       BasicConv2d-5           [-1, 64, 32, 32]               0
            Conv2d-6           [-1, 96, 32, 32]           6,144
       BatchNorm2d-7           [-1, 96, 32, 32]             192
              ReLU-8           [-1, 96, 32, 32]               0
       BasicConv2d-9           [-1, 96, 32, 32]               0
           Conv2d-10          [-1, 128, 32, 32]         110,592
      BatchNorm2d-11          [-1, 128, 32, 32]             256
             ReLU-12          [-1, 128, 32, 32]               0
      BasicConv2d-13          [-1, 128, 32, 32]               0
           Conv2d-14           [-1, 16, 32, 32]           1,024
      BatchNorm2d-15           [-1, 16, 32, 32]              32
             ReLU-16           [-1, 16, 32, 32]               0
      BasicConv2d-17           [-1, 16, 32, 32]               0
           Conv2d-18           [-1, 32, 32, 32]          12,800
      BatchNorm2d-19           [-1, 32, 32, 32]              64
             ReLU-20           [-1, 32, 32, 32]               0
      BasicConv2d-21           [-1, 32, 32, 32]               0
        MaxPool2d-22           [-1, 64, 32, 32]               0
           Conv2d-23           [-1, 32, 32, 32]           2,048
      BatchNorm2d-24           [-1, 32, 32, 32]              64
             ReLU-25           [-1, 32, 32, 32]               0
      BasicConv2d-26           [-1, 32, 32, 32]               0
        Inception-27          [-1, 256, 32, 32]               0
           Conv2d-28          [-1, 128, 32, 32]          32,768
      BatchNorm2d-29          [-1, 128, 32, 32]             256
             ReLU-30          [-1, 128, 32, 32]               0
      BasicConv2d-31          [-1, 128, 32, 32]               0
           Conv2d-32          [-1, 128, 32, 32]          32,768
      BatchNorm2d-33          [-1, 128, 32, 32]             256
             ReLU-34          [-1, 128, 32, 32]               0
      BasicConv2d-35          [-1, 128, 32, 32]               0
           Conv2d-36          [-1, 192, 32, 32]         221,184
      BatchNorm2d-37          [-1, 192, 32, 32]             384
             ReLU-38          [-1, 192, 32, 32]               0
      BasicConv2d-39          [-1, 192, 32, 32]               0
           Conv2d-40           [-1, 32, 32, 32]           8,192
      BatchNorm2d-41           [-1, 32, 32, 32]              64
             ReLU-42           [-1, 32, 32, 32]               0
      BasicConv2d-43           [-1, 32, 32, 32]               0
           Conv2d-44           [-1, 96, 32, 32]          76,800
      BatchNorm2d-45           [-1, 96, 32, 32]             192
             ReLU-46           [-1, 96, 32, 32]               0
      BasicConv2d-47           [-1, 96, 32, 32]               0
        MaxPool2d-48          [-1, 256, 32, 32]               0
           Conv2d-49           [-1, 64, 32, 32]          16,384
      BatchNorm2d-50           [-1, 64, 32, 32]             128
             ReLU-51           [-1, 64, 32, 32]               0
      BasicConv2d-52           [-1, 64, 32, 32]               0
        Inception-53          [-1, 480, 32, 32]               0
        MaxPool2d-54          [-1, 480, 16, 16]               0
           Conv2d-55          [-1, 192, 16, 16]          92,160
      BatchNorm2d-56          [-1, 192, 16, 16]             384
             ReLU-57          [-1, 192, 16, 16]               0
      BasicConv2d-58          [-1, 192, 16, 16]               0
           Conv2d-59           [-1, 96, 16, 16]          46,080
      BatchNorm2d-60           [-1, 96, 16, 16]             192
             ReLU-61           [-1, 96, 16, 16]               0
      BasicConv2d-62           [-1, 96, 16, 16]               0
           Conv2d-63          [-1, 208, 16, 16]         179,712
      BatchNorm2d-64          [-1, 208, 16, 16]             416
             ReLU-65          [-1, 208, 16, 16]               0
      BasicConv2d-66          [-1, 208, 16, 16]               0
           Conv2d-67           [-1, 16, 16, 16]           7,680
      BatchNorm2d-68           [-1, 16, 16, 16]              32
             ReLU-69           [-1, 16, 16, 16]               0
      BasicConv2d-70           [-1, 16, 16, 16]               0
           Conv2d-71           [-1, 48, 16, 16]          19,200
      BatchNorm2d-72           [-1, 48, 16, 16]              96
             ReLU-73           [-1, 48, 16, 16]               0
      BasicConv2d-74           [-1, 48, 16, 16]               0
        MaxPool2d-75          [-1, 480, 16, 16]               0
           Conv2d-76           [-1, 64, 16, 16]          30,720
      BatchNorm2d-77           [-1, 64, 16, 16]             128
             ReLU-78           [-1, 64, 16, 16]               0
      BasicConv2d-79           [-1, 64, 16, 16]               0
        Inception-80          [-1, 512, 16, 16]               0
           Conv2d-81          [-1, 160, 16, 16]          81,920
      BatchNorm2d-82          [-1, 160, 16, 16]             320
             ReLU-83          [-1, 160, 16, 16]               0
      BasicConv2d-84          [-1, 160, 16, 16]               0
           Conv2d-85          [-1, 112, 16, 16]          57,344
      BatchNorm2d-86          [-1, 112, 16, 16]             224
             ReLU-87          [-1, 112, 16, 16]               0
      BasicConv2d-88          [-1, 112, 16, 16]               0
           Conv2d-89          [-1, 224, 16, 16]         225,792
      BatchNorm2d-90          [-1, 224, 16, 16]             448
             ReLU-91          [-1, 224, 16, 16]               0
      BasicConv2d-92          [-1, 224, 16, 16]               0
           Conv2d-93           [-1, 24, 16, 16]          12,288
      BatchNorm2d-94           [-1, 24, 16, 16]              48
             ReLU-95           [-1, 24, 16, 16]               0
      BasicConv2d-96           [-1, 24, 16, 16]               0
           Conv2d-97           [-1, 64, 16, 16]          38,400
      BatchNorm2d-98           [-1, 64, 16, 16]             128
             ReLU-99           [-1, 64, 16, 16]               0
     BasicConv2d-100           [-1, 64, 16, 16]               0
       MaxPool2d-101          [-1, 512, 16, 16]               0
          Conv2d-102           [-1, 64, 16, 16]          32,768
     BatchNorm2d-103           [-1, 64, 16, 16]             128
            ReLU-104           [-1, 64, 16, 16]               0
     BasicConv2d-105           [-1, 64, 16, 16]               0
       Inception-106          [-1, 512, 16, 16]               0
       AvgPool2d-107            [-1, 512, 2, 2]               0
         Dropout-108            [-1, 512, 2, 2]               0
          Linear-109                   [-1, 10]          20,490
================================================================
Total params: 1,374,042
Trainable params: 1,374,042
Non-trainable params: 0
----------------------------------------------------------------
Input size (MB): 0.00
Forward/backward pass size (MB): 55.09
Params size (MB): 5.24
Estimated Total Size (MB): 60.34
----------------------------------------------------------------
echo: 0
loss: 0.3366949461859549
…
